scripts/mlruns/1/models/m-3e7dfa7688104d009b14522a8bf0f09d/artifacts/data/model.pth (torch, 17021 bytes, 5 tensors)

weight f4 [64, 4]
0	0x3e2e7d88	0.17040074
1	0x3eab7386	0.33486575
2	0x3e58a334	0.21156007
3	0xbeaa43fe	-0.33255
4	0xbeff045e	-0.4980802
5	0x3e22c280	0.15894508
6	0x3ee8a7fa	0.45440656
7	0xbedd1a92	-0.43184334
8	0x3ebb396a	0.3656724
9	0x3ef1b328	0.47206998
10	0x3ebb3726	0.36565512
11	0xbe7e376c	-0.2482583
12	0x3ef34b2c	0.4751829
13	0x3efbd526	0.49186057
14	0x3c7b4440	0.015336096
15	0x3e6d2cf8	0.23161685
16	0x3d676850	0.056495965
17	0xbe1db540	-0.15401173
18	0xbedef058	-0.43542743
19	0x3d8471d8	0.064670265
20	0xbd2afb50	-0.041743577
21	0x3e324b48	0.1741153
22	0xbe802238	-0.25026107
23	0xbb4cc400	-0.0031244755
24	0x3eb17796	0.3466155
25	0xbe0354a0	-0.1282525
26	0x3cb81ea0	0.02247554
27	0xbec6a156	-0.38794965
28	0x3ea889d4	0.32917655
29	0xbe921c78	-0.28537345
30	0xbe97b9bc	-0.29633892
31	0x3e08c6a8	0.13357031
32	0xbea87ac4	-0.32906163
33	0x3e3f3cd0	0.18675542
34	0xbec1d9f8	-0.3786161
35	0x3eca25c6	0.39481944
36	0x3e93fadc	0.28902328
37	0xbe841cf0	-0.25803328
38	0x3e4311f0	0.19049811
39	0x3e5bd0fc	0.2146644
40	0x3e97c4d2	0.2964235
41	0x3e6fab38	0.23405159
42	0x3e854a0e	0.26033062
43	0xbe7c0494	-0.24611121
44	0x3eab3b94	0.33443892
45	0x3ebbb5aa	0.36662036
46	0x3d7bb260	0.06144941
47	0xbed8302e	-0.42224258
48	0xbebb5b4a	-0.36593086
49	0x3ea58952	0.3233133
50	0xbe28c050	-0.16479611
51	0x3d8bec50	0.068321824
52	0x3ef0976a	0.4699052
53	0x3e34710c	0.17621249
54	0x3e958780	0.2920494
55	0xbeb708dc	-0.35748947
56	0x3dcedbd8	0.101005256
57	0xbdae96c0	-0.08524847
58	0x3eb5406e	0.35400718
59	0xbe3115c0	-0.17293453
60	0x3eb55936	0.35419625
61	0xbe1c6cbc	-0.15275854
62	0xbee59870	-0.44842863
63	0xbebde554	-0.37089026
64	0xbe848af6	-0.2588727
65	0x3eddbba0	0.4330721
66	0xbe62cf54	-0.22149402
67	0x3ef0de12	0.47044426
68	0xbee6ad6e	-0.4505419
69	0x3ea62498	0.32449794
70	0x3d340a20	0.04395497
71	0x3e81d3b4	0.2535683
72	0x3eaf0aa6	0.34187812
73	0x3e29852c	0.16554707
74	0x3e9d12a6	0.3067829
75	0xbec29582	-0.3800469
76	0xbe76ec48	-0.24113572
77	0x3e969732	0.29412228
78	0xbee20440	-0.44143867
79	0x3dbca180	0.09210491
80	0xbe01d224	-0.12677819
81	0x3eb86f22	0.36022288
82	0x3e1ef81c	0.15524334
83	0x3d7d5270	0.061846197
84	0x3ef1ae36	0.47203225
85	0x3de04a38	0.10951656
86	0x3e93d1d2	0.28871018
87	0x3e85f1e4	0.2616111
88	0xbea22364	-0.31667626
89	0x3e142040	0.14465427
90	0x3d70a130	0.05874747
91	0xbe8ffb0c	-0.2812122
92	0xbea8c832	-0.32965237
93	0xbe7bc418	-0.24586523
94	0xbea536e0	-0.3226843
95	0x3e9d34ba	0.3070429
96	0x3e285c84	0.16441542
97	0xbe753e08	-0.23949444
98	0x3ebb2c76	0.36557359
99	0xbd4a0b30	-0.049327075
100	0x3e8c03b6	0.2734658
101	0xbcf57400	-0.02996254
102	0xbedf784e	-0.43646473
103	0xbed81860	-0.42206097
104	0x3e3ad0b4	0.18243676
105	0x3dc60eb8	0.09670776
106	0x3ee88c80	0.45419693
107	0xbee2a5cc	-0.44267118
108	0xbe8c5332	-0.27407223
109	0x3eb43a22	0.35200602
110	0x3e15ea04	0.14640051
111	0x3ed8b7a6	0.42327613
112	0xbebc50c6	-0.36780375
113	0xbec13548	-0.37735963
114	0x3d95e2c0	0.0731864
115	0xbe71d964	-0.23618084
116	0xbdc070c0	-0.09396505
117	0x3eb90764	0.3613845
118	0xbe2637b4	-0.16232187
119	0xbea7a786	-0.32744998
120	0xbe350ba8	-0.17680228
121	0x3e0878e8	0.13327372
122	0xbcea28a0	-0.028583825
123	0x3e9865e0	0.29765224
124	0xbc58a600	-0.013223171
125	0x3e8fc50c	0.28080022
126	0xbe97bc5e	-0.296359
127	0x3eab000c	0.33398473
128	0xbe504728	-0.20339644
129	0xbd8996d0	-0.06718218
130	0x3c42a180	0.011879325
131	0x3e781930	0.24228358
132	0x3efaf6f6	0.4901654
133	0x3ef97ca0	0.48727894
134	0x3ebe48b6	0.3716485
135	0x3e92de06	0.28685015
136	0xbdccf7c0	-0.10008192
137	0x3e8eb16e	0.27869743
138	0xbe98593e	-0.29755586
139	0xbed28684	-0.41118252
140	0x3ef3363e	0.4750232
141	0xbdce3570	-0.10068786
142	0x3d77a2a0	0.060457826
143	0x3ee0c8d6	0.43903226
144	0xbe9b2ff4	-0.30310023
145	0x3ee14d5a	0.44004327
146	0x3c756740	0.01497823
147	0xbeb446ea	-0.35210353
148	0x3ef0af68	0.47008824
149	0xbe5e0684	-0.21682173
150	0x3d7cc2c0	0.061709166
151	0x3e28cc14	0.164841
152	0xbe2e9290	-0.17048097
153	0x3eb596c8	0.354666
154	0x3ed7652a	0.4206937
155	0xbe877578	-0.2645681
156	0x3c77d300	0.01512599
157	0xbe8f65d6	-0.28007382
158	0x3d8f0950	0.06984198
159	0xbc7484c0	-0.014924228
160	0x3e172cc0	0.14763165
161	0x3ea040c0	0.312994
162	0x3ee2ef08	0.4432299
163	0xbe8bb2a8	-0.2728474
164	0xbdd6a080	-0.10479832
165	0x3ed46c6e	0.41488975
166	0x3dcd5290	0.10025513
167	0x3d8dd4e0	0.06925368
168	0x3ecd33a2	0.40078455
169	0xbc8909a0	-0.016728222
170	0xbe0cbd84	-0.1374417
171	0x3de37a00	0.11107254
172	0x3c38f780	0.011289477
173	0xbe190124	-0.14941841
174	0xbdf41a28	-0.119190514
175	0x3eafc88c	0.34332693
176	0x3e783334	0.24238282
177	0xbecba23e	-0.39772218
178	0x3ec50a42	0.3848439
179	0xbe8dda16	-0.2770545
180	0xbd83d9b0	-0.06438005
181	0x3e5e95ac	0.21736783
182	0x3eff2a98	0.49837184
183	0xbeb05f7a	-0.34447843
184	0x3e28f838	0.16500938
185	0x3ddc2bf8	0.10750574
186	0xbd1031e0	-0.035203815
187	0x3dc92568	0.09821588
188	0x3e9ac56c	0.30228746
189	0x3b8d8700	0.004319072
190	0xbee1e690	-0.44121218
191	0x3ef3a484	0.47586453
192	0xbefeb44e	-0.49746937
193	0x3dc15568	0.09440118
194	0xbec1c02e	-0.37841934
195	0x3d880710	0.06641972
196	0xbe93a33c	-0.28835475
197	0x3d8b75b8	0.068095624
198	0x3ed168ea	0.40900356
199	0x3e9389e2	0.28816134
200	0xbe1356b8	-0.1438855
201	0x3eb56a54	0.35432684
202	0x3e82363e	0.25432009
203	0x3e568aec	0.20951432
204	0x3e737e88	0.23778737
205	0x3d909978	0.07060522
206	0xbea7a378	-0.32741904
207	0xbebde7ba	-0.37090856
208	0xbefd8168	-0.49512792
209	0x3ec5f42e	0.38662857
210	0x3ce6e160	0.028183639
211	0xbe9b168e	-0.30290645
212	0xbd226be0	-0.03965366
213	0x3ee64262	0.4497252
214	0x3e313064	0.17303616
215	0x3e49d398	0.19709623
216	0x39143000	0.00014132261
217	0xbb8b3500	-0.0042482615
218	0x3cc5b820	0.02413565
219	0xbea69b68	-0.3254044
220	0x3e18d228	0.14923918
221	0xbe197e08	-0.14989483
222	0x3eaa2ab4	0.33235705
223	0x3ed30880	0.41217422
224	0xbe31acd0	-0.17351079
225	0x3d17b590	0.037038386
226	0xbdb96e08	-0.0905419
227	0x3e3173e8	0.17329371
228	0x3e830f46	0.2559759
229	0x3ecc1a9c	0.3986405
230	0x3daf8f38	0.08572239
231	0xbec60f58	-0.3868358
232	0x3db73890	0.08946335
233	0x3efba808	0.49151635
234	0xbc07fc00	-0.008299828
235	0xbdb67a48	-0.08910042
236	0x3e929378	0.28628135
237	0xbdf1f8d8	-0.11815041
238	0x3eb53c84	0.35397732
239	0x3e34d380	0.17658806
240	0xbdf04d98	-0.1173355
241	0xbdbbc8c8	-0.09169155
242	0x3ef2b790	0.47405672
243	0xbcb31c60	-0.021864116
244	0x3cf7b840	0.030239224
245	0x3e56ddc0	0.20983028
246	0x3e85f0b8	0.26160216
247	0x3ec5a8da	0.38605386
248	0x3ec83384	0.39101803
249	0x3edeed58	0.43540454
250	0xbead1db2	-0.33811718
251	0xbea50f6c	-0.32238328
252	0x3e761df0	0.24034858
253	0x3c898960	0.016789138
254	0xbebd144e	-0.36929554
255	0x3ee86dac	0.45396173

bias f4 [64]
0	0xbddf6918	-0.10908717
1	0xbde16180	-0.11004925
2	0xbeec47e4	-0.46148598
3	0xbee3daf2	-0.4450298
4	0x3ebc4fe2	0.36779696
5	0x3e3e6d90	0.18596482
6	0xbe468f70	-0.19390655
7	0x3e56e2bc	0.2098493
8	0x3e6d235c	0.2315802
9	0xbef00c06	-0.46884173
10	0xbe2cc980	-0.16873741
11	0x3e5a0cf4	0.21294004
12	0x3ae50000	0.0017471313
13	0xbcbacd20	-0.02280289
14	0x3ed7afb0	0.42126226
15	0xbe46e01c	-0.19421428
16	0x3d5357a0	0.051597238
17	0x3e7d3f28	0.24731123
18	0xbed3cfac	-0.4136938
19	0x3d8b6cc8	0.06807858
20	0xbdc735f8	-0.097270906
21	0x3e4a62fc	0.19764322
22	0xbde70450	-0.112801194
23	0x3e95aeb0	0.29234838
24	0xbec50380	-0.38479233
25	0xbe810e80	-0.25206375
26	0xbeb8baa8	-0.36079907
27	0x3ddca8b8	0.10774368
28	0xbed9d438	-0.42544723
29	0x3cb436e0	0.021998823
30	0x3d9db388	0.077002585
31	0x3efdb1f6	0.49549836
32	0x3ed68930	0.4190154
33	0x3dfaff00	0.12255669
34	0xbe136e4c	-0.14397544
35	0x3ef2aca8	0.4739735
36	0x3d2ad780	0.041709423
37	0xbe87a3ac	-0.2649206
38	0xbe4d9c58	-0.20079172
39	0xbebe2112	-0.37134606
40	0xbe661d90	-0.22472215
41	0x3e0a8548	0.13527405
42	0x3e98fd12	0.29880577
43	0xbe752648	-0.23940384
44	0xbeeb8f9c	-0.46008003
45	0xbd7e3c10	-0.062069
46	0x3e8a837a	0.27053434
47	0x3e171810	0.14755273
48	0xbd8e1718	-0.069379985
49	0xbe4c6a64	-0.1996246
50	0x3e4020ec	0.18762559
51	0x3e061470	0.13093734
52	0xbe9c1416	-0.30484074
53	0x3ec9bbca	0.39401084
54	0x3ef92e34	0.48668063
55	0x3daad0a8	0.08340579
56	0xbeb05c5e	-0.3444547
57	0xbe79f6a4	-0.24410492
58	0xba802600	-0.000977695
59	0x3d69e1e0	0.057100177
60	0xbe05bee4	-0.130611
61	0x3d990148	0.074709475
62	0x3e26ef08	0.1630212
63	0xbee066a2	-0.43828303

weight f4 [32, 64]
0	0xbd921e6a	-0.07134707
1	0x3c1bd5f0	0.009511456
2	0xbdd336ea	-0.103132084
3	0x3c5b8740	0.013398945
4	0xbdaff152	-0.0859095
5	0xbc5be810	-0.013422027
6	0xbdf07972	-0.11741914
7	0x3dc53946	0.09630065
8	0xbd3f5afc	-0.04671763
9	0x3db14b8c	0.086569875
10	0x3cb44728	0.022006586
11	0x3d69a5b4	0.057042792
12	0xbd0d5368	-0.03450337
13	0xbd86a15c	-0.065737456
14	0x3c908468	0.017641261
15	0x3c66e1e0	0.014091939
16	0x3dab03bc	0.08350322
17	0xbb58af40	-0.0033063442
18	0xbc229cb0	-0.0099250525
19	0xbdb980c0	-0.0905776
20	0xb9d27200	-0.00040139258
21	0x3de9f980	0.114245415
22	0x3db2231e	0.08698104
23	0x3dbff83a	0.09373517
24	0xbdc06358	-0.09393948
25	0x3dfb621a	0.12274571
26	0x3d687f10	0.0567618
27	0x3d9f3c0e	0.077751264
28	0xbd23e610	-0.040014327
29	0xbd242680	-0.04007578
30	0xbdd18b14	-0.10231605
31	0x3d08f21c	0.03343402
32	0xbde298d4	-0.11064306
33	0x3dcdd892	0.10051073
34	0xbdece094	-0.115662724
35	0x3dd4ee68	0.10397035
36	0xbd86e768	-0.06587106
37	0xbd74ead0	-0.059794247
38	0xbd8a6c44	-0.06758931
39	0x3d939aba	0.07207246
40	0xbde21e48	-0.11040932
41	0xbdba66f8	-0.09101671
42	0xbde5aa62	-0.112141386
43	0xbdcbc138	-0.09948963
44	0xbdc6f16e	-0.09714018
45	0x3d837f74	0.06420794
46	0xbd023518	-0.031788915
47	0x3d9e9908	0.07744032
48	0xbbd05960	-0.0063583106
49	0xbdf24634	-0.118297964
50	0xbd6f4bd4	-0.058421925
51	0xbd8a3c82	-0.06749822
52	0xbd8bbd9e	-0.06823276
53	0xbd8c3410	-0.06845868
54	0xbdde3b7a	-0.10851188
55	0x3d4bf1d8	0.049791187
56	0xbd1fe4ac	-0.039036438
57	0x3b86bb00	0.0041116476
58	0x3d29edb0	0.041486442
59	0x3dca61a2	0.09881903
60	0x3de156ca	0.11002882
61	0x3d720710	0.059088767
62	0x3d742d50	0.059613526
63	0x3de74714	0.11292854
64	0x3de40cb2	0.11135234
65	0xbc91ec40	-0.017812848
66	0xbd34d4f4	-0.0441484
67	0xbda89c60	-0.08232951
68	0xbd1f4f2c	-0.038893864
69	0xbd37a974	-0.044839337
70	0xbd435fe4	-0.04769887
71	0xbceab718	-0.028651759
72	0x3dc99536	0.09842913
73	0xbdf29ee6	-0.11846714
74	0x3da76110	0.0817281
75	0xbd04cc00	-0.032421112
76	0x3d49b354	0.049243286
77	0x3d520d7c	0.05128239
78	0xbd50f340	-0.05101323
79	0xbd543b74	-0.05181451
80	0xbd849a70	-0.06474769
81	0x3b8257c0	0.003977746
82	0xbdd0349c	-0.101662844
83	0x3d4c75c4	0.049916998
84	0xbaae6a80	-0.0013306886
85	0x3df74b04	0.12074855
86	0xbc9064c8	-0.017626181
87	0xbdd899ec	-0.10576233
88	0xbdebd4e8	-0.11515218
89	0xbddad4c2	-0.106851116
90	0x3d889218	0.0666849
91	0x3dd353b4	0.103186995
92	0x3d4b4e04	0.04963495
93	0x3d768254	0.060182884
94	0x3d0de0f0	0.034638345
95	0xbc7749b0	-0.015093252
96	0xbd210f50	-0.039321244
97	0x3c23ecf0	0.010005221
98	0x3db96e2a	0.09054215
99	0x3d04ff44	0.032470003
100	0x3df5bc52	0.1199881
101	0x3df6ad0c	0.12044725
102	0xbcf84d10	-0.030310184
103	0x3ddf8966	0.109148785
104	0xbdccf6ca	-0.10008009
105	0x3d799bb4	0.060939506
106	0x3d6bd1f0	0.05757326
107	0x3d6f877c	0.058478817
108	0x3dd358da	0.103196815
109	0xbd7b0878	-0.061287373
110	0x3ca3a5d8	0.019976541
111	0xbd161114	-0.03663738
112	0x3dde6a18	0.108600795
113	0xbdcb4966	-0.09926109
114	0xbdda84e2	-0.10669877
115	0x3c5390c0	0.012912929
116	0x3d4c8344	0.049929872
117	0xbdf6c5a8	-0.12049419
118	0x3ccc51e8	0.0249414
119	0xbda30b1c	-0.07961103
120	0xbd267ac4	-0.040644422
121	0x3ddde0ce	0.10833894
122	0x3de80366	0.11328773
123	0xbc893860	-0.016750515
124	0xbdb0d34c	-0.08634052
125	0xbde18278	-0.11011213
126	0x3d73e4fc	0.05954455
127	0x3cad6600	0.021166801
128	0xbcd60da8	-0.026129559
129	0xbc855210	-0.016274482
130	0xbdf164b8	-0.11786789
131	0x3dba8d20	0.09108949
132	0xbd3f2608	-0.04666713
133	0xbd5d685c	-0.054054603
134	0x3d8e1306	0.06937222
135	0x3d6e1320	0.058123708
136	0x3a3efe00	0.0007285774
137	0x3d1b10c4	0.037857786
138	0x3d767998	0.060174555
139	0xbdc73bf8	-0.09728235
140	0x3c1321a0	0.008980185
141	0x3d30383c	0.04302238
142	0x3d863b62	0.06554295
143	0xbcc61ba0	-0.024183095
144	0xbd6a3a30	-0.0571844
145	0x3df06b4e	0.11739217
146	0xbd42e938	-0.047585696
147	0x3c2b7350	0.010464504
148	0xbdb2990e	-0.08720599
149	0x3df4e316	0.11957376
150	0x3d21a900	0.03946781
151	0xbd716690	-0.0589357
152	0xbd7d41a0	-0.061830163
153	0xbdd26cf0	-0.102746844
154	0x3dc8d064	0.09805372
155	0xbd02b610	-0.03191191
156	0xbdf54c2a	-0.11977418
157	0x3de85ec2	0.113461986
158	0x3a5f2e00	0.00085136294
159	0x3dc92ae6	0.09822635
160	0xbda44d90	-0.080226064
161	0x3dd073f4	0.10178366
162	0x3d05c508	0.032658607
163	0xbd8bd378	-0.06827444
164	0xbdc0a710	-0.09406865
165	0xbdd798be	-0.1052718
166	0xbd8c623a	-0.06854673
167	0x3c84e188	0.016220823
168	0x3d9dc622	0.077038065
169	0x3c82b670	0.015956134
170	0x3d21b598	0.039479822
171	0xbd4a81f8	-0.049440354
172	0x3d9f8280	0.07788563
173	0x3da1c156	0.07898204
174	0x3d859054	0.06521669
175	0x3d33dc2c	0.043911144
176	0x3cb79948	0.022411957
177	0xbd530758	-0.051520675
178	0xbdd581bc	-0.104251355
179	0xbc96ab88	-0.01839234
180	0x3c336990	0.010950461
181	0x3d536744	0.051612154
182	0x3d047d50	0.03234607
183	0x3df2911c	0.11844084
184	0x3df5328e	0.11972533
185	0xbd3b1784	-0.045676723
186	0x3d8e05c4	0.069346935
187	0x3cda69e0	0.026661813
188	0x3db74922	0.08949496
189	0xbd27a9c0	-0.04093337
190	0xbd9ecb42	-0.07753612
191	0xbd582164	-0.05276622
192	0x3d5ed988	0.054406673
193	0x3dcef15e	0.10104631
194	0x3d8baade	0.068197
195	0x3cabc7b0	0.020969242
196	0xbdb54ef2	-0.08852948
197	0x3d5b4420	0.053531766
198	0xbca40178	-0.020020232
199	0x3d7b7f80	0.06140089
200	0xbd9898b6	-0.07451002
201	0x3d92af90	0.07162392
202	0xbde36dd8	-0.111049354
203	0x3c91ddb8	0.017805919
204	0x3d6dd354	0.058062866
205	0x3dbb4bba	0.09145303
206	0x3dcf12ee	0.101110324
207	0x3cbb15e8	0.022837594
208	0xbda6480c	-0.081192106
209	0xbca99ec0	-0.02070558
210	0x3de8eb04	0.11372951
211	0xbc306140	-0.010765374
212	0xbc294e30	-0.010333583
213	0xbce5ea68	-0.028065875
214	0xbdbfecda	-0.09371348
215	0x3da25034	0.07925454
216	0xbd79c2fc	-0.060976967
217	0x3dd53edc	0.1041238
218	0xbde32dfa	-0.11092754
219	0x3d8bf9f6	0.06834786
220	0x3d96dc7e	0.07366274
221	0xbdbd77b8	-0.0925135
222	0xbd9c01f2	-0.076175585
223	0x3b887280	0.00416404
224	0x3dfb5f1a	0.122739986
225	0xbdd71ef6	-0.10503952
226	0xbcc46310	-0.023973018
227	0x3da6a46c	0.0813683
228	0x3dabd1b2	0.083896056
229	0xbd9b851e	-0.075937495
230	0x3dfd46d8	0.12367028
231	0xbc337ac0	-0.010954559
232	0x3ddd99fa	0.10820384
233	0x3d7b8440	0.06140542
234	0x3cdb4dd8	0.026770517
235	0x3db13f5e	0.086546645
236	0xbd8b3cb2	-0.06798686
237	0xbce625f0	-0.028094262
238	0x3ba74060	0.0051041096
239	0x3d5845ec	0.052801058
240	0xbce103b8	-0.027467594
241	0x3d9e3e30	0.07726705
242	0x3c99bd18	0.018766925
243	0xbd44b024	-0.048019543
244	0xbd789eac	-0.060698196
245	0xbd7b266c	-0.06131594
246	0xbdeaa604	-0.11457446
247	0xbca48a10	-0.020085365
248	0x3dbe5352	0.09293236
249	0xbdf4f80a	-0.11961372
250	0xbd491284	-0.049089924
251	0xbdaef186	-0.08542161
252	0xbd5bcc4c	-0.05366163
253	0xbdce5450	-0.10074675
254	0xbd9f4c9a	-0.077782825
255	0xbcf6a810	-0.030109435

bias f4 [32]
0	0x3deb3144	0.11484006
1	0xb9c00a00	-0.00036628544
2	0x3d972fee	0.07382189
3	0x3d7c4e30	0.061598003
4	0xbcc0f358	-0.023553535
5	0xbdf8e190	-0.12152398
6	0x3df4295e	0.11921953
7	0x3d927e54	0.071530014
8	0xbd84a83e	-0.06477402
9	0xbdd882ae	-0.105718
10	0x3ded1dd0	0.11577952
11	0x3ded06fc	0.11573598
12	0xbdbc92d8	-0.09207696
13	0x3df528de	0.119706854
14	0xbddfeefe	-0.10934256
15	0xbc2beb90	-0.010493174
16	0x3db8a1f8	0.09015268
17	0x3d560acc	0.05225639
18	0x3de4e80a	0.111770704
19	0xbdf64724	-0.12025288
20	0xbd0939a4	-0.033502236
21	0x3ddd8f74	0.10818377
22	0xbcd15b90	-0.025556356
23	0x3d59a90c	0.05313973
24	0x3d47ea08	0.048807174
25	0x3d17edc0	0.03709197
26	0x3cac0950	0.021000534
27	0xbd652660	-0.0559448
28	0xbdebc264	-0.115116864
29	0xbdf31262	-0.118687406
30	0xba9ba500	-0.0011874735
31	0x3d36429c	0.044497117

weight f4 [1, 32]
0	0x3df781b2	0.12085284
1	0xbe061c22	-0.1309667
2	0xbd8d46db	-0.0689828
3	0x3df8ca03	0.12147906
4	0xbe041604	-0.12899023
5	0xbc0c82b3	-0.008576083
6	0xbdbb7362	-0.09152867
7	0x3d985db9	0.07439751
8	0xbc6ffd3d	-0.014647779
9	0x3c314a5b	0.01082095
10	0x3dcef3aa	0.10105069
11	0xbe0980ba	-0.13428012
12	0x3d2b3291	0.04179627
13	0xbe165b91	-0.14683367
14	0x3e30530e	0.17219183
15	0xbdd7956b	-0.10526546
16	0xbc2d2886	-0.010568744
17	0xbd67abad	-0.056560207
18	0x3db4dacd	0.088307954
19	0xba971060	-0.0011525266
20	0x3ce602f2	0.028077576
21	0xbdfa7113	-0.122285984
22	0x3cd6a96c	0.026203834
23	0x3d4ef470	0.050526083
24	0x3e116dec	0.14202088
25	0xbe0c9621	-0.13729145
26	0xbc1b2647	-0.009469575
27	0xbde1f985	-0.1103392
28	0xbcd06455	-0.025438467
29	0xbc5bcf07	-0.013416058
30	0xbd94890e	-0.072527036
31	0x3e0382c3	0.1284285
