scripts/mlruns/1/models/m-a598136e078f41c0b92bd1dbf2f0afde/artifacts/data/model.pth (torch, 17021 bytes, 5 tensors)

weight f4 [64, 4]
-0.18580735 0.023611724 0.16918766 -0.30261284 -0.42222768 -0.09081465 -0.4785077 -0.39022058
-0.19937354 -0.26487678 -0.44597578 -0.45733982 0.116081774 -0.21576232 -0.026336074 -0.39078265
0.16649532 0.009848058 -0.14129788 0.26528925 -0.038862705 0.06346464 0.029418886 -0.41834158
0.3056057 0.34619993 -0.4051646 0.46378386 -0.36496478 0.34503704 -0.23949975 -0.390993
-0.2861476 -0.12120706 0.3201174 0.48510277 0.23673916 -0.3369047 0.1385917 -0.48242068
0.13780338 0.17079067 0.1162166 0.0019500852 -0.4304973 -0.14214104 -0.36994088 -0.1677838
0.46719283 -0.49728572 -0.4127524 -0.3932594 -0.3644234 -0.059458494 -0.15629947 0.36067736
0.041226923 -0.13232315 0.15711778 -0.078036666 0.38108277 -0.46416563 0.1246199 -0.0657115
-0.32746875 -0.22984326 0.38905627 0.0067217946 0.49435085 0.27891922 -0.13381207 0.10474515
0.4986564 0.38671446 0.4768443 0.18029255 -0.14860427 -0.33083516 -0.39865994 0.39892167
0.29310614 -0.15839875 0.4931932 0.06474513 0.3310151 -0.17394644 0.30637622 -0.0384416
0.49717748 -0.24214047 -0.28181076 0.1298703 0.4703465 -0.42828602 -0.09359491 -0.44255304
0.36485368 -0.026890337 0.2631477 0.32267016 0.3249058 -0.030461192 -0.39936686 -0.08548665
-0.43592823 -0.43097007 0.44298923 -0.25659722 -0.29941297 -0.12259287 0.42914385 0.35833722
0.41188622 -0.15402985 -0.15309757 -0.33092403 0.10588133 0.26493078 0.28662103 0.32450885
-0.17532355 0.33947957 0.01623571 0.30208105 -0.28454965 -0.3270538 0.054862857 0.2939548
0.20613325 0.4169461 -0.034099817 0.19411111 -0.30435383 0.39526427 -0.4524362 -0.026630461
-0.34164566 -0.31690407 0.35962874 -0.057879865 0.32226884 -0.42878562 -0.004080951 -0.057602227
-0.3719344 -0.42571664 -0.26459223 0.044518232 -0.038359463 0.11022198 -0.22047126 0.022588849
-0.33887267 0.43035382 0.3447339 -0.13364363 -0.16390407 0.063510895 -0.3502555 -0.25284457
-0.087222755 0.15362781 -0.039661348 -0.40543395 -0.22452122 -0.3442073 0.0851599 -0.29196543
-0.14270985 -0.38762194 0.29233605 0.08532947 -0.46824914 -0.18162048 -0.21312004 0.1068902
-0.45505983 0.030431867 -0.07977736 0.4993819 -0.40473408 0.009553134 -0.2569933 -0.18800336
-0.07767439 -0.4144374 0.46007556 -0.4257635 0.14253771 -0.110063374 0.1103884 0.3970014
-0.46904933 -0.3421101 0.36499298 0.44483405 -0.44160497 -0.4645067 0.30327892 -0.1793403
0.26788646 -0.49530268 0.49328715 -0.06727511 0.13695222 -0.37229156 -0.31276447 0.018602252
-0.27887398 -0.23993647 -0.39491946 -0.40130436 -0.3228268 0.1960954 0.43520546 0.17454064
0.206846 -0.26035357 0.22304636 0.16959316 -0.36621433 -0.058153212 -0.47437245 0.02246195
0.4048313 0.009407163 0.3261863 0.33365577 0.3533513 0.022844791 0.20719206 -0.020385683
0.30119926 -0.33449894 -0.45464754 0.20274103 -0.3185181 -0.27418762 0.20283216 0.45114005
-0.11564511 0.39934218 0.07259309 0.25288773 -0.46662426 -0.14206582 0.25513983 0.4184432
0.48781836 0.09789401 -0.011669934 -0.053904116 0.054715455 -0.0707652 -0.037627697 -0.33691782
00000000: 4844 3ebe 606d c13c 883f 2d3e 12f0 9abe
00000010: 3a2e d8be 08fd b9bd f6fe f4be feca c7be
00000020: 9428 4cbe ee9d 87be f056 e4be 7228 eabe
00000030: 48bc ed3d ccf0 5cbe c0be d7bc aa14 c8be
00000040: c07d 2a3e c059 213c 64b0 10be fed3 873e
00000050: 802e 1fbd c0f9 813d e0ff f03c de30 d6be
00000060: 5a78 9c3e 1e41 b13e bc71 cfbe 1475 ed3e
00000070: aadc babe b2a8 b03e 6c3f 75be 3c30 c8be
00000080: f081 92be 683b f8bd 6ee6 a33e 645f f83e
00000090: c06b 723e c67e acbe fcea 0d3e d8ff f6be
000000a0: 541c 0d3e c0e3 2e3e f802 ee3d 009a ff3a
000000b0: 246a dcbe 6c8d 11be e468 bdbe 84cf 2bbe
000000c0: e633 ef3e 3c9c febe 4854 d3be 4c59 c9be
000000d0: b495 babe c08a 73bd f80c 20be b4aa b83e
000000e0: 90dd 283d b87f 07be 7ce3 203e b0d1 9fbd
000000f0: 481d c33e 1ea7 edbe b838 ff3d c093 86bd
00000100: fca9 a7be 085c 6bbe 6232 c73e 8042 dc3b
00000110: 8e1b fd3e 80ce 8e3e 0806 09be a084 d63d
00000120: e44f ff3e 70ff c53e f024 f43e 9c9e 383e
00000130: b82b 18be 3a63 a9be 281d ccbe 763f cc3e
00000140: 0212 963e 4833 22be d283 fc3e 1899 843d
00000150: d07a a93e 041f 32be 58dd 9c3e f074 1dbd
00000160: 0c8e fe3e acf3 77be 8049 90be b8fc 043e
00000170: 42d1 f03e 4e48 dbbe b0ae bfbd 5096 e2be
00000180: 1ace ba3e 2049 dcbc 4cbb 863e 0635 a53e
00000190: 0e5a a63e c089 f9bc d079 ccbe a013 afbd
000001a0: fc31 dfbe 1ca8 dcbe 7ccf e23e b660 83be
000001b0: a84c 99be f811 fbbd beb8 db3e fa77 b73e
000001c0: c0e2 d23e 00ba 1dbe 9cc5 1cbe e06e a9be
000001d0: 50d8 d83d 02a5 873e febf 923e 0626 a63e
000001e0: 0488 33be 44d0 ad3e c000 853c 5eaa 9a3e
000001f0: 7eb0 91be 9873 a7be e0b7 603d 3e81 963e
00000200: 9814 533e f679 d53e 40ac 0bbd 10c5 463e
00000210: 44d4 9bbe 1460 ca3e b8a5 e7be 2028 dabc
00000220: 2eec aebe 4041 a2be 4221 b83e 7013 6dbd
00000230: 6c00 a53e ca89 dbbe 80b9 85bb 50f0 6bbd
00000240: 306e bebe 88f7 d9be a278 87be c058 363d
00000250: d01e 1dbd 10bc e13d 38c3 61be 400c b93c
00000260: b880 adbe 5657 dc3e f680 b03e e0d9 08be
00000270: 78d6 27be 0012 823d b054 b3be d874 81be
00000280: d8a1 b2bd 9c50 1d3e f073 22bd 0a95 cfbe
00000290: e4e8 65be f03b b0be 5068 ae3d 7e7c 95be
000002a0: 8822 12be 6276 c6be 12ad 953e 38c1 ae3d
000002b0: 5abe efbe b8fa 39be 243c 5abe 40e9 da3d
000002c0: 9afd e8be 404c f93c 5062 a3bd fcae ff3e
000002d0: 4e39 cfbe c084 1c3c a094 83be f483 40be
000002e0: c013 9fbd 2431 d4be 068f eb3e acfd d9be
000002f0: 68f5 113e e868 e1bd 5013 e23d c443 cb3e
00000300: 3c27 f0be 0e29 afbe 5ce0 ba3e 4ac1 e33e
00000310: 0c1a e2be d2d3 edbe 6047 9b3e fca4 37be
00000320: 6a28 893e 5098 fdbe 2290 fc3e 88c7 89bd
00000330: 343d 0c3e 009d bebe aa22 a0be c063 983c
00000340: 92c8 8ebe e8b1 75be e232 cabe c477 cdbe
00000350: 8e49 a5be 3ccd 483e 40d3 de3e c8ba 323e
00000360: 70cf 533e 104d 85be 4466 643e d4a9 2d3e
00000370: 7280 bbbe 1032 6ebd f2e0 f2be 2002 b83c
00000380: 0c46 cf3e 8020 1a3c e401 a73e eed4 aa3e
00000390: 76ea b43e 0025 bb3c 282a 543e e0ff a6bc
000003a0: ca36 9a3e 7243 abbe 90c7 e8be 589b 4f3e
000003b0: ce14 a3be 5262 8cbe 3cb3 4f3e d4fb e63e
000003c0: 58d7 ecbd 9476 cc3e b0ab 943d 807a 813e
000003d0: 60e9 eebe b479 11be b0a1 823e 303e d63e
000003e0: 54c3 f93e a87c c83d 4033 3fbc 90ca 5cbd
000003f0: 501d 603d 58ed 90bd 801f 1abd 7e80 acbe

bias f4 [64]
-0.17831898 0.4052918 0.35662836 -0.053394318 -0.19715518 -0.43289727 -0.3529905 0.30250317
0.2936781 0.37223095 0.44963747 0.16007668 0.21707594 -0.17718863 0.08405411 -0.21428537
0.028387189 0.34073377 -0.45541984 0.11266559 0.22332644 -0.029396355 -0.3341835 -0.07648784
0.35132825 0.40632778 -0.13216454 -0.3103947 0.14536768 0.16816181 0.31151623 0.101242125
-0.44495332 0.47811568 0.4846329 0.46677822 -0.08577281 0.18398052 -0.09977007 0.028680146
0.3670162 -0.18409395 -0.4074613 0.2265113 0.06217867 -0.13155603 -0.03751999 0.4078505
-0.3814937 -0.17306507 -0.248609 -0.08160555 0.3605919 0.27175534 0.17701185 0.46029174
-0.4322402 -0.006681502 -0.3856973 0.04471773 -0.41676378 0.36371022 0.45806795 0.45820338
00000000: 4099 36be 6882 cf3e fe97 b63e 00b4 5abd
00000010: 0ce3 49be b6a4 ddbe 2cbb b4be b2e1 9a3e
00000020: fa5c 963e 0e95 be3e e236 e63e 24eb 233e
00000030: 2849 5e3e f070 35be 9024 ac3d a06d 5bbe
00000040: 408c e83c a874 ae3e ca2c e9be 38bd e63d
00000050: b0af 643e a0d0 f0bc 1a1a abbe a8a5 9cbd
00000060: 4ce1 b33e 320a d03e 2456 07be 0eec 9ebe
00000070: 44db 143e 9c32 2c3e 0e7f 9f3e 0858 cf3d
00000080: ecd0 e3be 94cb f43e ce21 f83e 8efd ee3e
00000090: a8a9 afbd 6465 3c3e 4054 ccbd a0f2 ea3c
000000a0: 8ce9 bb3e 2083 3cbe c49e d0be 94f2 673e
000000b0: 10af 7e3d a0b6 06be 90ae 19bd c8d1 d03e
000000c0: 2453 c3be f837 31be 5c93 7ebe d020 a7bd
000000d0: 809f b83e 8423 8b3e 9842 353e 5cab eb3e
000000e0: 964e ddbe 80f0 dabb 1e7a c5be f029 373d
000000f0: 1062 d5be 3a38 ba3e e287 ea3e a299 ea3e

weight f4 [32, 64]
-0.06724556 0.020375833 -0.020557165 -0.11924161 0.008617654 -0.02708815 -0.124544576 0.04523045
-0.06281783 -0.11063297 0.11007811 -0.11939539 0.08171363 -0.12462209 -0.04494497 0.08642937
-0.10622771 0.06258875 -0.12495807 -0.012215301 0.12325825 0.0013748258 -0.029014185 -0.10242742
0.09512526 -0.015710533 -0.12446305 0.09825273 -0.10980214 -0.017408535 0.0793751 0.106968194
-0.083335996 -0.042982444 0.019722119 0.06012012 0.0071760267 0.055969298 0.10899109 -0.005504772
0.07909387 0.0924425 0.08513038 -0.08517636 -0.11034615 -0.057084903 0.102675214 0.08908038
-0.023239732 -0.071639195 0.06822075 0.09686008 0.036649704 -0.066442996 0.015217125 0.07712111
-0.09769662 0.048792377 0.09403871 0.08106698 -0.103329554 -0.034070536 0.04208894 0.123053506
-0.0842786 0.044762358 -0.11508982 -0.008822456 0.017951936 -0.0015722811 0.103036106 -0.05362463
0.07313958 0.060905695 -0.12272939 0.030537799 -0.04760489 0.018222988 -0.04299818 -0.120140195
0.085907236 -0.040370807 -0.07950953 -0.03958957 -0.07111414 -0.025256783 -0.05925414 0.017021403
-0.09113215 -0.10409851 -0.0054501146 0.115899414 0.08353406 -0.015170738 0.07139839 -0.06601593
-0.017418772 -0.029112414 -0.0015040338 0.030281514 0.0074539483 -0.07645951 0.069506526 0.085847065
-0.07543281 0.082082406 -0.047256634 0.020367756 -0.1176067 0.015559226 0.09137371 -0.07435015
-0.07300794 -0.09215391 0.008575663 0.074179575 -0.07089366 -0.051511362 0.07687856 -0.0029048026
0.06138675 0.12413049 -0.05022183 -0.06878637 -0.055470258 0.09547974 0.08441372 0.022106528
0.040865242 0.007395327 -0.0996902 -0.019860178 -0.08962636 0.021152139 0.05590664 0.044818655
-0.0008995533 0.03251943 0.031898618 0.11422779 -0.07823056 -0.122959346 0.01926513 -0.018968403
-0.015547246 -0.03711456 0.01926279 -0.11410551 -0.12330569 -0.11636922 -0.05166696 -0.0888582
-0.05641301 0.023325399 -0.06777994 0.025450662 -0.015490547 0.09116338 0.11589907 0.078100264
-0.105219364 0.036771804 0.015591368 0.05729179 -0.077582285 -0.11671889 -0.07796095 0.05233784
0.0036300123 0.012640059 0.06911677 0.016691253 -0.016486123 -0.09732123 0.09935525 -0.04802008
-0.08174218 -0.07111551 -0.058034733 0.05069059 0.09794426 -0.0027669966 -0.084098935 -0.07277396
-0.04334213 0.06909102 -0.024648443 0.08672738 0.08276613 -0.11454566 0.11746979 0.12314694
0.038857162 -0.044861525 -0.054205388 -0.08294129 0.07727541 -0.10749072 -0.067589805 0.040694907
-0.0949263 0.013629422 -0.12109153 0.06291348 0.06940131 -0.06446932 -0.0349468 0.022669017
0.11822039 -0.033577234 0.014211252 -0.123930454 0.032599747 -0.07450643 0.049396157 0.10009089
0.01271306 -0.016696587 0.07710844 -0.0438589 -0.048978344 -0.0033559203 -0.043486774 0.044975176
0.04277399 -0.071233824 0.12012829 0.088780984 0.034275383 -0.040203616 0.027731225 0.06242861
-0.025685638 0.013184145 -0.102763474 -0.11789189 0.03649591 -0.042503238 -0.12070638 -0.08653024
0.10776566 -0.123548284 -0.048915684 -0.08348049 -0.08731462 0.002594933 0.018234953 -0.061257824
-0.05139661 -0.124799445 -0.0027050823 0.072643176 0.048512578 0.11404765 -0.040891036 0.018264607
00000000: 0ab8 89bd 38eb a63c 8067 a8bc f234 f4bd
00000010: 1031 0d3c f8e7 ddbc 3a11 ffbd 9043 393d
00000020: a2a6 80bd 8a93 e2bd a270 e13d 9285 f4bd
00000030: 7a59 a73d de39 ffbd 3818 38bd e201 b13d
00000040: ea8d d9bd 882e 803d 04ea ffbd b022 48bc
00000050: d26e fc3d 8033 b43a 28af edbc 78c5 d1bd
00000060: 08d1 c23d 60b3 80bc 7ce6 febd ba38 c93d
00000070: f2df e0bd 589c 8ebc 6a8f a23d 2412 db3d
00000080: 10ac aabd 5c0e 30bd 4890 a13c 8440 763d
00000090: e024 eb3b 1040 653d b836 df3d 6061 b4bb
000000a0: f8fb a13d 7e52 bd3d d658 ae3d f270 aebd
000000b0: 2afd e1bd dcd1 69bd 6247 d23d c66f b63d
000000c0: 4061 bebc 92b7 92bd 52b7 8b3d 945e c63d
000000d0: 001e 163d 4413 88bd 4051 793c acf1 9d3d
000000e0: 2a15 c8bd 84da 473d 5e97 c03d 7206 a63d
000000f0: 729e d3bd 8c8d 0bbd 7465 2c3d 7a03 fc3d
00000100: 429a acbd bc58 373d 36b4 ebbd 108c 10bc
00000110: f00f 933c 0015 ceba 9804 d33d 80a5 5bbd
00000120: 34ca 953d 4078 793d 8c59 fbbd 682a fa3c
00000130: 58fd 42bd 6048 953c dc1e 30bd 100c f6bd
00000140: 22f0 af3d dc5b 25bd e4d5 a2bd ac28 22bd
00000150: 4aa4 91bd 50e7 cebc 78b4 72bd 7870 8b3c
00000160: 7ea3 babd 9a31 d5bd e096 b2bb ac5c ed3d
00000170: e813 ab3d b08e 78bc 5239 923d 5c33 87bd
00000180: d0b1 8ebc 287d eebc 0023 c5ba f010 f83c
00000190: 4040 f43b ce96 9cbd 7059 8e3d 96d0 af3d
000001a0: 847c 9abd d21a a83d 2c90 41bd 48da a63c
000001b0: c8db f0bd 20ec 7e3c 2422 bb3d e444 98bd
000001c0: 3085 95bd 30bb bcbd f080 0c3c 76eb 973d
000001d0: b230 91bd 94fd 52bd 8272 9d3d 805e 3ebb
000001e0: ac70 7b3d 2038 fe3d 68b5 4dbd dedf 8cbd
000001f0: c834 63bd e28a c33d 1ae1 ac3d c018 b53c
00000200: 5062 273d 8054 f23b 602a ccbd d0b1 a2bc
00000210: 068e b7bd 4047 ad3c 5cfe 643d c493 373d
00000220: 00d0 6bba 1833 053d 20a8 023d 42f0 e93d
00000230: 5837 a0bd 1cd2 fbbd e8d1 9d3c a063 9bbc
00000240: e0b9 7ebc 7005 18bd 00cd 9d3c 26b0 e9bd
00000250: b287 fcbd fc52 eebd bca0 53bd 4afb b5bd
00000260: 5411 67bd e814 bf3c 36d0 8abd e87d d03c
00000270: 10cc 7dbc deb3 ba3d 7e5c ed3d 08f3 9f3d
00000280: 407d d7bd 089e 163d f072 7f3c ccaa 6a3d
00000290: 76e3 9ebd 500a efbd fea9 9fbd 3460 563d
000002a0: 80e5 6d3b 4018 4f3c 188d 8d3d 18bc 883c
000002b0: e80d 87bc 5a50 c7bd c47a cb3d b4b0 44bd
000002c0: 7268 a7bd 02a5 91bd d4b5 6dbd f0a0 4f3d
000002d0: 0097 c83d 8056 35bb 103c acbd 840a 95bd
000002e0: 8487 31bd 987f 8d3d 88eb c9bc 209e b13d
000002f0: 4a81 a93d ea96 eabd 0094 f03d 7634 fc3d
00000300: b028 1f3d b8c0 37bd 7806 5ebd 20dd a9bd
00000310: 9242 9e3d 1824 dcbd 866c 8abd b4af 263d
00000320: b868 c2bd f04d 5f3c d6fe f7bd c8d8 803d
00000330: 4622 8e3d 7e08 84bd 6024 0fbd 60b4 b93c
00000340: 881d f23d 4888 09bd 50d6 683c 40cf fdbd
00000350: 5087 053d d496 98bd a053 4a3d 74fc cc3d
00000360: 704a 503c 48c7 88bc 08eb 9d3d 64a5 33bd
00000370: 849d 48bd 00ef 5bbb 301f 32bd e437 383d
00000380: c833 2f3d 0ae3 91bd d205 f63d ced2 b53d
00000390: 5864 0c3d 8cac 24bd 982c e33c 24b5 7f3d
000003a0: b06a d2bc 5002 583c a875 d2bd 4e71 f1bd
000003b0: bc7c 153d e017 2ebd e834 f7bd c436 b1bd
000003c0: 3eb4 dc3d e206 fdbd d05b 48bd d2f7 aabd
000003d0: 02d2 b2bd c00f 2a3b 7861 953c 7ce9 7abd
000003e0: 4085 52bd da96 ffbd c047 31bb f2c5 943d
000003f0: 20b5 463d d091 e93d 5c7d 27bd a89f 953c

bias f4 [32]
-0.06931941 -0.059442773 0.042663187 0.0070750266 0.009701148 -0.0004121065 0.05387646 -0.117403105
0.03614913 -0.0079523325 -0.02362606 0.103219226 -0.03444177 -0.028072283 -0.09076834 0.097102985
0.10593104 0.04984255 -0.030299589 0.05128312 -0.04448296 -0.09378591 -0.014542058 0.10308558
-0.10572103 0.085889 0.09093812 -0.09274663 0.04981087 -0.048671663 -0.11482546 0.043460086
00000000: 56f7 8dbd 447a 73bd 98bf 2e3d a0d5 e73b
00000010: 90f1 1e3c 0010 d8b9 90ad 5c3d 0a71 f0bd
00000020: 1c11 143d 804a 02bc 708b c1bc 9a64 d33d
00000030: d012 0dbd d8f7 e5bc c0e4 b9bd eedd c63d
00000040: 60f2 d83d b427 4c3d d836 f8bc 400e 523d
00000050: c433 36bd d412 c0bd d041 6ebc 881e d33d
00000060: 4484 d8bd 92e6 af3d c43d ba3d f2f1 bdbd
00000070: 7c06 4c3d f05b 47bd 9c29 ebbd 3403 323d

weight f4 [1, 32]
-0.06816134 0.16102576 -0.15165861 0.036018062 0.17068426 -0.04654662 0.106434464 -0.030190377
0.041051514 -0.10545546 -0.17007314 0.03893488 0.009908956 -0.026139328 -0.12621993 0.17283954
-0.16649318 -0.023475077 0.07919715 -0.014336672 -0.10821574 0.10900203 0.035624284 -0.031532142
-0.0012778924 0.14606372 -0.16805406 0.11457994 -0.1141368 -0.09734624 -0.08443744 -0.099882975
00000000: 2c98 8bbd f0e3 243e 654c 1bbe ad87 133d
00000010: dbc7 2e3e aba7 3ebd 50fa d93d cf51 f7bc
00000020: a225 283d 08f9 d7bd a727 2ebe 2e7a 1f3d
00000030: 2c59 223c 2522 d6bc cc3f 01be d9fc 303e
00000040: 307d 2abe ce4e c0bc 1e32 a23d 5ce4 6abc
00000050: 37a0 ddbd 753c df3d c5ea 113d d927 01bd
00000060: f47e a7ba ba91 153e 5d16 2cbe e3a8 ea3d
00000070: 8ec0 e9bd 775d c7bd 89ed acbd 728f ccbd
