scripts/mlruns/1/models/m-0169b8306b854a47a28989fe585e9c05/artifacts/data/model.pth (torch, 17021 bytes, 5 tensors)

weight f4 [64, 4]
00000000: 30bd 68bd fc2e 4ebe 120e e73e 10a5 ab3e
00000010: b6b0 e63e f405 11be 80d7 aa3e 20ca 703d
00000020: 74b6 fdbe baec e0be e0a5 0c3d ec8c b9be
00000030: 4879 023e f487 263e 2861 17be 08dc a03d
00000040: 426b b1be b0e9 623d c0a6 f83e 80b2 bbbd
00000050: bca8 223e f214 8a3e b055 ee3d 2449 373e
00000060: 307c e63d 801a 543e 7a65 85be 8093 e8bc
00000070: 98c4 f03e 2088 373d d290 ba3e a447 613e
00000080: f643 c03e b06e 6bbd 3822 f6be 4456 673e
00000090: 58fc fdbd 648c 743e c073 4cbc 4891 26be
000000a0: 60c6 7cbd 50d4 71be 48d9 66be 1a2a 973e
000000b0: 940e 393e 62bc d13e c4ba d03e 781b b73d
000000c0: 50f7 debe 00b6 653c b42e be3e b2c7 b33e
000000d0: f4d6 603e dca1 0abe bc2b e43e f0ef f5be
000000e0: 4a91 9d3e c0da c43c 20b3 28be 9049 d8bd
000000f0: d010 133e f0f2 833d 5e5f 8bbe 984a c3bd
00000100: 6c5c f93e eed9 d6be e8d8 dd3d 58f6 b13d
00000110: 4cf3 b63e 7494 b93e 009b 37be 741a f5be
00000120: 94f4 cebe fa2a bb3e e487 29be 005e 873e
00000130: dcdd a5be 1004 dd3e d4c4 ddbe 1010 b5bd
00000140: d2bb aebe 6e6f aabe b8df ec3e c0ad 623c
00000150: 384f 29be a005 c73c c68e e43e 18fa ce3e
00000160: 0096 00be b4b9 75be 9448 d9be d405 cd3e
00000170: 1677 8f3e 4c86 773e aa82 8a3e 80ab 953d
00000180: 269c b2be 80c5 c13c 9a4c dd3e ccc3 af3e
00000190: 30d6 a1be 20f7 d4be f29e db3e 3eb8 a2be
000001a0: 7400 9bbe 04bc 023e d092 5abd bc81 3abe
000001b0: e483 75be 3864 eb3e 4258 b5be e0b5 733d
000001c0: 80de 61be 8088 d1bb f0f5 1b3d 9e89 c2be
000001d0: 12ec cdbe 180d 3c3e 70b3 c0be 1a56 803e
000001e0: 0cb6 c3be 8c07 6e3e 907c d9bd 4681 e13e
000001f0: 5057 f93d 34be 9e3e ce57 e0be dc5a 463e
00000200: 648e f53e 8038 ffbb 00ce 213b 70c3 ccbd
00000210: e0e5 27be 40da 853d 208f a6bd 0eae f03e
00000220: 8c87 d73e f05f 0d3d 26f0 e13e 384e c0bd
00000230: 502c 3fbd 0054 2f3a 9036 203d 2065 38bd
00000240: 3e73 b63e d8a5 3f3e c04b cb3e e499 053e
00000250: e060 853c 5a6f d4be 7450 77be aace fc3e
00000260: ca69 9d3e 90d2 5e3e fe79 833e 40a1 f63e
00000270: 40d0 1f3c 7426 303e 0867 dabe 4048 f73c
00000280: a49d 6fbe 140b ce3e 16c9 9c3e b4c4 a1be
00000290: deb8 e63e 26c3 f4be 46fd 903e ace7 ec3e
000002a0: e051 c73c c43f d6be d8d8 593e e04e e7bc
000002b0: ae63 f1be fe78 bf3e 1015 4e3e 68f3 6f3e
000002c0: b633 a13e cad1 db3e 5cdf 943e 28dd b1be
000002d0: 4834 f5be dc1d 63be ea58 b8be a063 c23d
000002e0: 007e 773e 624f 97be e4f5 22be 22c1 e3be
000002f0: 54fe 39be ce84 d7be caff 843e 7048 c1bd
00000300: f8b8 c1be 725a fe3e f87f 603e 08bd c4bd
00000310: 324d 813e a03b 87be 2e35 9a3e 1225 c7be
00000320: 68f2 473e c622 b9be 7651 bd3e 9024 c83e
00000330: 9a45 9bbe ba57 85be c0f6 003e 30fc afbd
00000340: 3c23 683e 00e9 163d 909e 7f3d ccb0 7ebe
00000350: ba25 a3be badc d1be 4854 533e 8048 003e
00000360: bed4 acbe e003 e5bd 709e 53be f89d 733e
00000370: 0c83 2fbe 10f7 d8bd 100a be3e b05d 343d
00000380: 604b ef3e 60e7 dfbd 26ea 8d3e 20e7 ebbe
00000390: dcf5 c93e a042 3f3e 8cda c1be 38bd be3d
000003a0: f26a 9f3e 3089 183d 9200 ca3e 7c07 863e
000003b0: 1800 a83d 8289 abbe b8b7 4a3e 2a87 d83e
000003c0: 365e a23e e0e8 1c3d 80eb 03be 8020 73be
000003d0: c219 e0be 6c6e 043e 700e 5e3e e411 e03e
000003e0: c009 d9bc 56d9 f4be 206f 563e 5890 773e
000003f0: c2b0 a6be 0ca3 e63e eca6 86be 5c4c 17be
-0.05682105 -0.2013511 0.45127922 0.3352437 0.45056695 -0.14162427 0.33367538 0.05878651
-0.49553263 -0.43930608 0.03433788 -0.36240327 0.12741578 0.162628 -0.14783156 0.07854468
-0.34652144 0.055398643 0.4856472 -0.091649055 0.1588468 0.26969105 0.11637437 0.17898995
0.11254156 0.20713234 -0.26053983 -0.028390646 0.4702499 0.044807553 0.36438614 0.21999985
0.3755185 -0.057478607 -0.48072982 0.22591501 -0.124016464 0.2388168 -0.012478769 -0.16266358
-0.061712623 -0.23616147 -0.22543824 0.29524308 0.18071967 0.40964037 0.4076749 0.08940786
-0.4354806 0.014020443 0.37145007 0.35113293 0.21956998 -0.13538307 0.44564617 -0.4803462
0.3077491 0.02403009 -0.16474581 -0.10560906 0.14361882 0.06442821 -0.27221197 -0.09535712
0.48703325 -0.41963142 0.10832387 0.086895645 0.35732496 0.36246073 -0.17930222 -0.47871745
-0.40420973 0.36556226 -0.16555744 0.26438904 -0.32395828 0.43167162 -0.4331423 -0.08840954
-0.3412767 -0.3328814 0.46264434 0.013835371 -0.16534126 0.024294674 0.44640177 0.4042518
-0.1255722 -0.23996621 -0.42438185 0.4004351 0.28020543 0.24172324 0.27052814 0.07308102
-0.34884757 0.023653746 0.43222505 0.3432907 -0.31608725 -0.4159479 0.42894703 -0.3178119
-0.30273783 0.12767035 -0.053362668 -0.18213552 -0.23976094 0.45974898 -0.35418898 0.05949962
-0.22057533 -0.006394446 0.03807634 -0.3799562 -0.4021917 0.1836437 -0.376369 0.2506569
-0.38224828 0.23245066 -0.106194615 0.4404394 0.12174857 0.31004488 -0.4381699 0.19370598
0.47960198 -0.0077887177 0.0024689436 -0.09998214 -0.16396284 0.065357685 -0.08132768 0.47007793
0.42095602 0.03451532 0.4412853 -0.09389919 -0.04667312 0.0006688237 0.039114535 -0.045018315
0.35634798 0.18715608 0.3970623 0.13046986 0.016281545 -0.41491205 -0.24151784 0.49376422
0.30744773 0.2176001 0.2567901 0.481699 0.0097542405 0.17202169 -0.42656732 0.030185819
-0.23399979 0.40242827 0.30622166 -0.31595385 0.45062917 -0.47805136 0.28318232 0.46270502
0.024331033 -0.41845524 0.21274126 -0.028235853 -0.47146362 0.37396997 0.20125222 0.23432696
0.31484765 0.42933494 0.2907666 -0.3473904 -0.4789145 -0.22179359 -0.36005336 0.09491658
0.24169159 -0.29552752 -0.15914112 -0.44483286 -0.18163425 -0.4209351 0.25976402 -0.094376445
-0.37836432 0.4967838 0.21923816 -0.09606367 0.25254208 -0.26412678 0.30118698 -0.3889547
0.19526064 -0.36159343 0.36976212 0.39090395 -0.3032654 -0.26043493 0.12594128 -0.08593023
0.22669691 0.0368433 0.062407076 -0.2487213 -0.3186472 -0.40988714 0.2063762 0.12527657
-0.3375606 -0.1118238 -0.20665908 0.23790729 -0.17139834 -0.105939984 0.37117052 0.04403466
0.46737194 -0.10932803 0.27717704 -0.46074772 0.39445388 0.18677759 -0.3786205 0.09313434
0.3113628 0.037240207 0.3945356 0.26177585 0.08203143 -0.33503348 0.19796646 0.42290622
0.31712502 0.038308024 -0.12882805 -0.23742867 -0.43769652 0.12932748 0.21685195 0.4376365
-0.026493907 -0.47822064 0.20940828 0.24176157 -0.3255673 0.4504627 -0.26299226 -0.14775223

bias f4 [64]
00000000: 5ca6 0fbe 2450 0e3e 6680 95be acba ddbe
00000010: 408d f03d c842 85bd 3047 53bd 5832 043e
00000020: 1243 a73e 6414 70be 6c11 ac3e 0cad 6ebe
00000030: 28cd d93d 28ce efbe 9469 1e3e 36d4 cc3e
00000040: 9099 a53d 1c27 833e 502f 193e fcaf b43e
00000050: 506a 70be 8821 e13d a8ec 7a3e a04a 8cbc
00000060: 2276 c33e 48e9 823d 7020 9bbd e4d2 963e
00000070: 90d4 303d b860 8e3e 6ca2 d53e 541f 06be
00000080: 20cd a9bd a071 cf3c e002 a43c 08b1 febe
00000090: b849 bf3e 10b6 71be 0adb c63e 0051 7e3b
000000a0: 3408 e03e 8c38 733e c85b af3e 4093 d53e
000000b0: 18d4 e3be f80e 6f3e 0eae 8e3e 38d4 f9bd
000000c0: ee0d e13e b44d e6be 58ea 77be 78dd 30be
000000d0: 805e a03c a409 7ebe 64e4 33be f247 92be
000000e0: 50cc a5bd 3230 f73e bc40 0bbe c409 f1be
000000f0: 74a7 4abe 28ba dc3e 8cad d3be dad0 f53e
-0.14028305 0.13897759 -0.29199523 -0.43306482 0.11745691 -0.06506878 -0.05158156 0.1290983
0.32668358 -0.23445278 0.33607042 -0.233082 0.106348336 -0.46836972 0.15469962 0.40005654
0.0808593 0.25615776 0.14959455 0.35290515 -0.23478055 0.10992724 0.2450434 -0.017125428
0.38176066 0.06392151 -0.07574546 0.29457772 0.043171465 0.27808166 0.4172548 -0.13097888
-0.082910776 0.025322735 0.020020902 -0.4974444 0.3736093 -0.23604608 0.3883899 0.0038805604
0.43756258 0.2375204 0.3424971 0.41713905 -0.44497752 0.23345554 0.27867168 -0.12198681
0.4395594 -0.44981158 -0.24210489 -0.17271984 0.019576311 -0.24808365 -0.17567593 -0.28570515
-0.0809561 0.48278958 -0.13598913 -0.47077763 -0.19790441 0.43110776 -0.41343343 0.48010904

weight f4 [32, 64]
00000000: a2d4 abbd 0099 8bba 805c c6bb eccb 13bd
00000010: 40e9 933d 3c41 d1bd 2cc8 a2bd 34e5 5c3d
00000020: 34d8 6d3d f4fe 933d 20ea a1bb 00c5 21bd
00000030: 2415 1e3d 9c10 0a3d a83c ae3c 805f c4bb
00000040: ac7e a53d c4f8 663d d003 b73c f8db ccbd
00000050: 6085 713d 0684 b8bd 9a30 d1bd a849 d13c
00000060: 8eb4 98bd 0018 b03d 5ac3 f3bd b866 08bd
00000070: fce1 55bd fa16 d93d b09f d83d 6a66 cf3d
00000080: 4455 cebd a81e e6bd a01b fb3c 4046 8e3b
00000090: 4800 c73c 4624 803d bee0 c93d ac84 943d
000000a0: 04c5 803d 2c06 e53d f43b 493d cc69 b3bd
000000b0: c077 d3bd 2a6c e6bd 2497 883d 70d5 7f3c
000000c0: 1087 c43d 7654 dfbd 0055 61bb 8804 2c3d
000000d0: b482 b6bd e037 85bb ec43 5d3d 3811 9cbc
000000e0: 1061 e8bc 901d 64bc 3c11 29bd eceb 5b3d
000000f0: e86a df3c a88f d83d 1866 973d 00c7 58bd
00000100: 6859 4bbd 00a8 433c d8d3 4b3d 14bc 923d
00000110: 9079 3dbc ce37 ce3d a00d a0bc 60fb ee3b
00000120: 88e5 ebbc 0418 6e3d 50c3 36bc 883d 63bd
00000130: b0a5 43bc e6ee c5bd 18f9 e83c 603a f83d
00000140: 4c71 3a3d 64e0 e9bd 505a 373c 40af dd3d
00000150: b408 753d 108b c0bc b4a2 a8bd 10cf 1e3c
00000160: a8d0 69bd 30bb 973c 40ef 15bb 105d 3fbc
00000170: c091 783d 18e3 fbbc a07f aebc 5421 fc3d
00000180: e0c5 7abc 4099 78bb 080e 72bd 3ef7 fbbd
00000190: b096 5bbd 0c30 863d a813 9cbc b0e3 643d
000001a0: f42e 793d 20b3 a7bd 12b0 96bd 203d c73c
000001b0: cc06 b3bd 8cfa bfbd de3f d7bd cc18 71bd
000001c0: 30d7 c53d 109b a33d 3cc7 a43d 50db 3fbd
000001d0: b081 103d 8cc1 28bd d45e 14bd f46c 94bd
000001e0: 8a3e f1bd aeff 9cbd 10c0 a43d 7e2b debd
000001f0: 34c3 1d3d 94e5 92bd 447a 13bd 2af7 e0bd
00000200: 34b5 c6bd 6294 a83d 6cd8 113d 8041 c2bc
00000210: f0bb 833c ee9c e83d 10ac 08bd cc28 3d3d
00000220: 008d 2c3a baea c93d 9c8e d9bd 0e39 83bd
00000230: 9007 ab3d 16e6 a53d c8f2 ad3d e420 bfbd
00000240: f0c4 6fbc 70ff febc 08da b83d 507f 65bd
00000250: 64b1 363d 62ef cdbd e41c 1fbd 10e7 cbbc
00000260: 1403 adbd 5079 593d 1e5b aabd 3060 4c3c
00000270: 9eb7 fdbd fe76 8d3d 3a83 b03d cca9 433d
00000280: a278 95bd f0cb babc 74da 14bd c6e7 a63d
00000290: 9426 d43d a85a 243d 8423 283d e435 9e3d
000002a0: 18ce cebc f428 82bd 7433 f2bd a025 60bd
000002b0: 4c1f 773d ec68 6f3d ac6c 60bd 0440 7a3d
000002c0: 7889 cfbd 1434 bebd 9ccd c33d 906c f8bc
000002d0: 3408 1cbd 0033 f4bb 20b9 d5bc 52c9 e7bd
000002e0: 6cf0 473d 885b aa3c a033 23bc c44a 9ebd
000002f0: 8008 c7ba d006 29bd 683e a63d 84c3 0a3d
00000300: 5cd7 6c3d bee8 dd3d 6c4c 31bd b886 f73d
00000310: e241 edbd a06d bb3d d8a3 67bd fecb 8cbd
00000320: 6c67 2e3d 30fa 0abc 00ea a139 2464 62bd
00000330: 74cd 04bd 448e d63d b83c b9bd b86e b53d
00000340: 1821 29bd c02a 713c 68f9 993d 583c 373d
00000350: 0ca4 513d fa34 a8bd d62b a2bd a4ff 7d3d
00000360: 5c7d 153d 961a f6bd 9e0d af3d 02f2 f8bd
00000370: 8083 e3bb b02d f6bd 38de ab3c c06a fc3b
00000380: 6628 a93d 4a10 b3bd 04ce 353d 0e46 ecbd
00000390: c020 1ebd 0414 b43d b895 c1bd 8edb 9d3d
000003a0: 7876 7ebd c0c0 c1bb 5c7f 60bd 2417 fc3d
000003b0: d80b e63d 6038 a93c 8072 babd 0cdd 76bd
000003c0: 30dd 223c fafb bd3d d04e 52bd d8ab 83bd
000003d0: f8b4 27bd 6252 d53d e4cd 573d 7017 033c
000003e0: 00d4 9fb9 7a9c b73d dcf2 1abd 3638 803d
000003f0: 005d 5ebb aa23 cb3d 3485 8cbd e062 a03c
-0.08390166 -0.0010650456 -0.0060535073 -0.036083147 0.07222223 -0.102175206 -0.07948336 0.053929523
0.058067515 0.07226363 -0.00494124 -0.039494514 0.03859438 0.033707246 0.021269158 -0.00599283
0.08080801 0.056389585 0.022340685 -0.10002893 0.058965087 -0.090095565 -0.10214348 0.025547817
-0.07456313 0.08598328 -0.11902495 -0.033301085 -0.05221747 0.106000856 0.10577333 0.10126956
-0.10074857 -0.11236316 0.030652821 0.0043418705 0.024292126 0.062569186 0.09857319 0.07251868
0.06287578 0.11182818 0.04912944 -0.087604135 -0.10325575 -0.112510994 0.06669453 0.015614852
0.09596074 -0.109047815 -0.003438294 0.04199651 -0.089116484 -0.0040654987 0.054019853 -0.01905118
-0.028366596 -0.013923064 -0.0412762 0.05369179 0.027272657 0.10574275 0.0739252 -0.052924156
-0.04964581 0.01194191 0.049762577 0.07164779 -0.011564627 0.10069238 -0.019537747 0.00729315
-0.028795972 0.05812837 -0.011154965 -0.055478603 -0.011941358 -0.09664707 0.02843909 0.12120509
0.045518205 -0.11419752 0.011190966 0.10824442 0.059822753 -0.02350381 -0.08234158 0.009692922
-0.057083756 0.018521875 -0.00228782 -0.011679903 0.060685873 -0.030747935 -0.02130109 0.12311044
-0.015305966 -0.003793314 -0.059095412 -0.12303017 -0.053610504 0.06552133 -0.019052342 0.055881202
0.060835794 -0.08188462 -0.073578015 0.024321139 -0.08741531 -0.0937396 -0.105102286 -0.05886154
0.096601844 0.0798856 0.080458134 -0.046840012 0.03527993 -0.041200206 -0.036223248 -0.07247344
-0.117795065 -0.076659545 0.080444455 -0.10848139 0.03851624 -0.07172695 -0.036005273 -0.10984643
-0.097025305 0.08231427 0.035606787 -0.023712873 0.016080827 0.11358057 -0.033367217 0.046181485
0.000658229 0.09859224 -0.10622904 -0.06407367 0.08351052 0.08100526 0.084935725 -0.09332445
-0.014634356 -0.031127661 0.09025961 -0.056029618 0.044602767 -0.10055424 -0.03884591 -0.024890453
-0.08447853 0.05309421 -0.083181605 0.012474105 -0.12388538 0.069074616 0.086187795 0.047769353
-0.072983995 -0.022802323 -0.036341146 0.08149676 0.10358921 0.04012552 0.041049495 0.077251226
-0.025244758 -0.063554674 -0.1182622 -0.054723382 0.06033258 0.05844967 -0.054791138 0.061096206
-0.10133642 -0.09287277 0.09560701 -0.030325204 -0.03809376 -0.0074523687 -0.026089251 -0.11317696
0.04881327 0.020795599 -0.009961039 -0.07729104 -0.0015185028 -0.041266263 0.08117372 0.033877864
0.05782257 0.10835408 -0.043285772 0.120862424 -0.11584832 0.09151769 -0.056552738 -0.06874846
0.0425791 -0.008482501 0.00030882657 -0.055271283 -0.032422498 0.10476354 -0.09044784 0.088590086
-0.041291326 0.014719665 0.075182736 0.044735283 0.051181838 -0.082132295 -0.07918517 0.062011376
0.036496505 -0.120167896 0.08547519 -0.12155534 -0.0069431663 -0.12020433 0.020979986 0.0077031553
0.082596585 -0.08743341 0.044385925 -0.11536799 -0.03860545 0.0879288 -0.09452385 0.07707892
-0.0621247 -0.00591287 -0.05480896 0.12309101 0.11232728 0.020656765 -0.091038704 -0.0602694
0.0099404305 0.09276576 -0.051344693 -0.06429261 -0.04094407 0.10416104 0.052686587 0.008001193
-0.00030484796 0.089653924 -0.037829265 0.062607214 -0.0033929944 0.09918912 -0.06861344 0.019578397

bias f4 [32]
00000000: 9485 043d 5c78 edbd 1ccc 7abd 56be a7bd
00000010: 18a8 113d c485 893d 0038 6a3a fc8e ed3d
00000020: 8c1f 923d 8272 973d 3e7a e0bd c0fa c1bd
00000030: 4014 bcbd e86f 51bd 109d f03c e882 a5bd
00000040: 5464 58bd ea44 d83d 98b1 8a3d 8051 fdbd
00000050: 76f0 a4bd 5872 5d3d 6051 293d 20cf 4f3d
00000060: 3e86 d53d 9076 013d 7c6c 643d 3407 803d
00000070: d003 34bc b284 acbd 54f5 35bd 9449 eb3d
0.032353953 -0.11595222 -0.06122981 -0.081906006 0.035560697 0.06714967 0.0008934736 0.11599538
0.07134923 0.073948875 -0.10960816 -0.09471655 -0.0918355 -0.051132113 0.029371768 -0.08081609
-0.052830055 0.10560019 0.067721546 -0.123690605 -0.08053677 0.054064125 0.04133737 0.05073464
0.10425995 0.03160721 0.05576752 0.06251374 -0.010987237 -0.08423747 -0.044423416 0.11488643

weight f4 [1, 32]
00000000: 98ed f7bc 87eb 25be 285f 343e 2fd7 e7bb
00000010: 9686 c9bd cd59 df3d afd0 03bd e1bc f13d
00000020: 5fb5 233e 14ad 163e 9db4 bd3d 01b4 f23d
00000030: 016b c63d 7e37 a73d 4a7e 73bd 16e7 efbd
00000040: 105c 333e 1369 00be 610c 73bd 091e 27be
00000050: e840 cdbd 8873 063e 7485 02be 54bd 003e
00000060: af11 5abd ca5f 8dbd d9e6 9abd c74f 38bd
00000070: a472 a23d a2eb e33d f2e3 33be ce09 71bd
-0.03026466 -0.16203128 0.17614424 -0.0070752124 -0.09840123 0.109058 -0.032181438 0.11803604
0.15987156 0.14714462 0.09262965 0.11850739 0.09688378 0.08164881 -0.05944661 -0.11713998
0.17515588 -0.12540083 -0.059337977 -0.16320051 -0.100221455 0.13130009 -0.12746221 0.12572223
-0.05323952 -0.06903036 -0.07563562 -0.044997957 0.07932022 0.11128928 -0.17567423 -0.05884724
