scripts/mlruns/1/models/m-c96fd79870764797934d9c1ec9e7692c/artifacts/data/model.pth (torch, 17021 bytes, 5 tensors)

weight f4 [64, 4]
000000 60 c4 e1 3d a8 f3 97 bd 30 e7 54 3e 22 3e e4 3e
       0.11023784 -0.074195206 0.20791316 0.44578654
000010 28 ce a5 3d bc 41 20 be b6 a6 d0 be fe 06 ca 3e
       0.08095962 -0.15650076 -0.4075219 0.3945846
000020 b0 d5 7d bd 70 9f 60 be bc ab de 3e 00 e6 67 3d
       -0.061971366 -0.2193582 0.43490398 0.05661583
000030 70 28 ce 3e b4 d1 f8 3e 20 67 b7 be d0 42 b9 bd
       0.40265226 0.4859749 -0.35820866 -0.090459466
000040 dc d5 f9 be aa f7 a2 3e 7c 0e 16 3e 70 14 fd 3e
       -0.48795974 0.31829578 0.14653963 0.49429655
000050 30 48 c8 3e 5c ad 6b 3e 88 88 c2 be 8a be b7 3e
       0.39117575 0.2301535 -0.3799479 0.35887557
000060 92 39 94 3e 70 b8 46 3d 00 e6 52 bb 14 01 ff 3e
       0.28950173 0.048515737 -0.0032180548 0.4980551
000070 d4 ae ed be ce 24 bf be d2 48 cc 3e 00 be 57 3c
       -0.46422446 -0.37332767 0.39899307 0.013167858
000080 90 5b 69 3d 30 36 78 3d 30 ee 70 be cc 0e 14 be
       0.056972086 0.060598552 -0.23528361 -0.1445877
000090 b0 9b 13 be 5a c0 81 3e 00 c2 fd bb 10 29 90 bd
       -0.14414859 0.25342065 -0.007744074 -0.07039082
0000a0 d8 71 f7 3e fe aa c6 3e 32 43 ab be cc eb 89 3e
       0.48329043 0.38802332 -0.33449703 0.2693771
0000b0 b0 13 1f bd 0e a7 f7 3e 30 e8 54 bd 34 ff f2 3e
       -0.038837135 0.4836964 -0.051979244 0.4746033
0000c0 3a 74 c1 3e 46 50 de 3e f2 77 ab 3e a0 33 fe bc
       0.37783986 0.4342062 0.3348995 -0.031030476
0000d0 c0 d5 2e bc 82 e5 e3 3e 48 be 1b 3e 88 1f a1 be
       -0.010671079 0.44511038 0.15209305 -0.3146937
0000e0 00 f7 22 3d 2a 72 c4 be f0 23 01 be 84 00 be 3e
       0.03978634 -0.3836835 -0.12611365 0.37109768
0000f0 50 08 49 bd 48 fe 00 3e c0 52 54 be 60 5a c8 3d
       -0.049080193 0.12597 -0.20734692 0.09782863
000100 52 54 c2 be 2c d8 81 3e 40 b5 07 bd 74 b4 fb 3e
       -0.37954956 0.2536024 -0.033131838 0.49161112
000110 aa 10 c8 3e 30 20 3e 3e 48 44 90 3e 4c b8 21 3e
       0.39075214 0.18566966 0.28177094 0.1579296
000120 90 2d 8b be 74 9b 23 be e4 51 ce be 5e 22 c1 3e
       -0.271832 -0.1597727 -0.40296853 0.37721533
000130 c0 58 07 3e 26 a4 ab 3e 86 df d7 3e 2c d2 b2 3e
       0.13217449 0.33523673 0.42162722 0.34925973
000140 be f0 e2 be b6 05 f2 be 88 0f f5 be 5c 38 f6 3e
       -0.44324297 -0.47269982 -0.47863412 0.48089874
000150 2e 81 99 3e ca 4f cb be 48 21 b0 bd 8c 95 3d be
       0.2998137 -0.39709312 -0.08600098 -0.18514079
000160 b8 c1 23 3e 88 d5 e6 3d c0 40 33 bc ec 63 ba be
       0.15991867 0.112711966 -0.010940731 -0.3640436
000170 bc 93 9a be fc 8b 33 3e 70 02 39 be 60 b6 79 3e
       -0.30190837 0.17533869 -0.18067336 0.24385977
000180 50 d7 dd 3e 70 ae aa be d2 ae cc be 04 35 a7 be
       0.43328333 -0.3333621 -0.39977127 -0.32657635
000190 a8 c2 ef be 62 38 d8 3e 68 13 1d be a0 91 99 be
       -0.46828198 0.42230517 -0.15339434 -0.29993916
0001a0 e0 6d c4 3d 5e f7 db be 34 d5 b9 3e fc 93 df 3e
       0.095912695 -0.42962164 0.36295474 0.4366759
0001b0 48 07 c6 3e 50 9f f5 3d ba 3c 84 3e cc 5f 8a be
       0.3867743 0.11993277 0.2582758 -0.27026212
0001c0 a0 73 97 3e 88 de 01 be b4 c1 a3 be 0e af 81 3e
       0.29580402 -0.12682545 -0.3198372 0.2532887
0001d0 26 33 c7 3e bc 71 0e be 96 7a 97 be 46 27 8b be
       0.3890621 -0.13910574 -0.29585713 -0.271784
0001e0 c0 49 af 3e b8 a1 4d be 00 68 f2 3c 2c 77 b9 be
       0.34235954 -0.20081222 0.029590607 -0.36223733
0001f0 fc 6e 16 be 3c eb 00 3e c8 8c e9 3e bc 2c 7e be
       -0.14690775 0.12589735 0.4561522 -0.24821752
000200 5c 67 34 3e 02 91 a4 3e 10 41 cb 3d c0 8f 26 3e
       0.17617553 0.32141882 0.09924519 0.16265774
000210 32 59 81 3e 80 9f 88 bc 10 9d 9e 3e 00 88 b9 ba
       0.25263363 -0.016677618 0.30979204 -0.0014154911
000220 0e 22 e7 3e bc 00 79 be 08 a3 b4 be 00 6c a9 ba
       0.4514317 -0.24316686 -0.35280633 -0.0012925863
000230 e8 b8 c9 3d 68 db ed be aa 28 cf 3e 10 48 8d 3d
       0.09849721 -0.46456456 0.40460712 0.068985105
000240 bc d6 ec be 18 48 7b be 00 07 c5 3d 9e 17 f1 3e
       -0.4625758 -0.2453922 0.09620476 0.4708833
000250 60 1f d8 be b8 5c a6 3d 40 ff b1 3d a0 9a 90 bd
       -0.42211437 0.081231534 0.08691263 -0.070607424
000260 e8 be 99 be fe 1f 84 3e 50 e5 7a bd bc b6 88 3e
       -0.30028462 0.25805658 -0.061253846 0.26701915
000270 b8 12 9a 3e e4 68 8c be c8 ed cf 3e ac 21 c2 3e
       0.30092406 -0.27423775 0.406111 0.37916315
000280 bc c8 4f 3e 70 07 ea 3e 5c 40 8f 3e b6 f5 da be
       0.20291418 0.457088 0.2797879 -0.42765588
000290 24 85 08 be a0 bb bb 3d e8 14 63 be e0 d9 ea 3e
       -0.13332039 0.09166646 -0.22175944 0.4586935
0002a0 9c bc 1a 3e 00 3e 08 be 1e af c6 be 5c 9e 80 3e
       0.15111011 -0.13304901 -0.3880548 0.2512082
0002b0 90 00 33 3e 40 ff 72 3c 44 5f d4 be fe 68 89 be
       0.17480683 0.014831364 -0.41478932 -0.26837915
0002c0 7c 06 f9 3e a8 0d bf be b2 d3 c6 3e a4 38 75 3e
       0.4863776 -0.37315106 0.38833386 0.23947388
0002d0 38 36 dd 3e 22 8a e9 be dc 07 cc 3e b8 df f1 bd
       0.43205428 -0.456132 0.39849746 -0.11810249
0002e0 ca 72 fb 3e 68 02 15 be 98 ef b7 3e 96 51 d7 3e
       0.49111015 -0.14551699 0.35924983 0.42054433
0002f0 e8 68 c7 bd f2 d6 d5 3e 40 16 2b be 42 0f 83 3e
       -0.09736806 0.41765553 -0.16707706 0.25597578
000300 e8 20 c7 3e 00 76 af 3e e0 3c b9 bd 12 90 e8 3e
       0.38892293 0.34269714 -0.09044814 0.45422417
000310 e8 a2 ec 3e 82 e4 96 be b0 3c 60 be 68 ed c3 3d
       0.46218038 -0.29471213 -0.2189815 0.09566766
000320 f0 2d 99 3d 20 0b 82 3d a0 24 d6 bd 10 02 25 bd
       0.07479465 0.06349778 -0.104562044 -0.04028517
000330 7c ec 65 be 88 e9 95 3e ba 37 df be 2c 9f 4f 3e
       -0.22453493 0.29279733 -0.43597203 0.20275563
000340 68 a3 d8 bd 9c 06 fa be 26 cf 94 3e 30 11 66 bd
       -0.10578042 -0.48833168 0.29064292 -0.056168735
000350 28 b7 9d 3e fa 02 b5 be 00 2d fc 3c c4 17 18 be
       0.308038 -0.35353833 0.030783176 -0.14852816
000360 70 70 b5 be 26 b2 ad be f0 b5 68 be d2 93 fb be
       -0.35437346 -0.3392498 -0.22725654 -0.49136215
000370 f0 78 0d be 00 5c 0a bb 78 e7 b9 bd 60 c8 b5 be
       -0.13815665 -0.0021111965 -0.09077352 -0.35504436
000380 d2 df f8 be b8 bf ad be 60 18 8b 3c e0 b8 a4 3d
       -0.4860826 -0.33935332 0.016979396 0.080430746
000390 f8 18 6c 3e 48 50 f4 be 80 fd f6 3d 18 54 8f 3d
       0.230564 -0.477175 0.1206007 0.069984615
0003a0 a2 04 f3 be 10 69 8f 3e 48 52 50 be 68 a1 97 be
       -0.47464472 0.28009844 -0.20343888 -0.2961533
0003b0 f6 85 ac be 40 ce 5d 3c 28 b0 11 be 2e 13 f7 be
       -0.33695954 0.013537943 -0.14227355 -0.4825682
0003c0 0c 4b 9c 3e bc c2 c3 be c6 bc f3 3e d8 fb b5 bd
       0.30526006 -0.38234508 0.4760496 -0.08885926
0003d0 10 27 64 3e 90 a6 8f be 00 ce 6f bc 4c b8 c1 3e
       0.22280526 -0.28056765 -0.014636517 0.3783592
0003e0 2a 6f 8a 3e a0 40 e7 3c d6 30 b2 be b0 ba 02 3d
       0.27037936 0.028229058 -0.34802884 0.03191632
0003f0 74 56 cc be 0e 14 d8 3e 14 10 b0 be 54 97 e5 be
       -0.39909708 0.422028 -0.34387267 -0.44842017

bias f4 [64]
000000 a0 6d fc 3d 2a 61 97 be e4 1f f8 be ee 4a de be
       0.12325597 -0.29566318 -0.4846183 -0.43416542
000010 f0 75 03 3e f0 f4 7f 3e b0 5f 68 3d ec 80 10 be
       0.12837958 0.2499578 0.05673188 -0.1411168
000020 c0 d5 b5 bc b0 f8 9d be 00 8c c0 be 0c ab b8 3e
       -0.02219665 -0.30853796 -0.37606812 0.36067998
000030 f2 65 bb be c8 fe b0 3d e0 73 df bd b8 d3 bb 3d
       -0.36601216 0.08642346 -0.10910773 0.091712415
000040 38 55 21 be 44 93 18 3e 98 dd ca 3e 1e 4e cf 3e
       -0.15755165 0.14899927 0.39622188 0.40489286
000050 4a f7 98 3e ac d1 c4 be 54 65 e7 be a8 8a 84 3d
       0.29876167 -0.38441217 -0.45194495 0.06471759
000060 e0 e7 e9 3d f4 fe 99 3e 7e 93 f9 be 04 99 6a 3e
       0.1142118 0.30077326 -0.4874534 0.22909933
000070 46 d1 8d 3e 98 02 81 3d cc 4f 04 be b0 8d af 3e
       0.27698725 0.06299323 -0.12921065 0.34287786
000080 f4 ea e8 3e ba 1d ec 3e c0 c5 ea be 40 c3 af 3c
       0.45491755 0.4611643 -0.45853996 0.021455407
000090 ec bf 4d 3e 20 85 72 bd d0 7f 76 bd aa 03 91 3e
       0.20092744 -0.05920899 -0.060180485 0.28323108
0000a0 ce f5 c7 be 18 b7 54 be 00 2a b4 bb c0 19 7b be
       -0.39054722 -0.2077297 -0.005498171 -0.24521542
0000b0 4e b4 b7 3e f4 59 c5 3e 3c 42 60 3e 30 0e 86 be
       0.3587975 0.3854519 0.21900266 -0.261827
0000c0 a4 c8 31 3e 60 eb de bc 40 8f 2b bc 60 b2 25 3e
       0.17361695 -0.027211845 -0.010471165 0.16181326
0000d0 d4 59 d3 be 1a ff cc 3e be 69 f5 3e a2 c6 ff be
       -0.4127947 0.40038377 0.47932237 -0.49956232
0000e0 c0 5c 1d bc e0 3a aa bd 00 0c 8b bc 88 13 9b bd
       -0.009604633 -0.08312011 -0.016973495 -0.07572085
0000f0 24 08 ea be 3a ff cc be a6 c4 c0 be 74 98 09 be
       -0.45709336 -0.40038472 -0.3765003 -0.13437063

weight f4 [32, 64]
000000 0c 95 11 bd 8e ae d1 3d c0 eb 0e bb 38 2b 74 bd
       -0.035542533 0.10238372 -0.0021807998 -0.05961153
000010 f0 cf 9f 3d 30 4b 7c bd 50 96 ba 3c 60 e8 80 3c
       0.07803333 -0.061595142 0.022776753 0.015735805
000020 c0 aa 9f bb e0 68 d4 3d 24 5a 26 3d a2 3b 8e 3d
       -0.00487265 0.10371566 0.04061331 0.06944968
000030 e0 84 9b bd c8 28 89 3c e8 94 8d bd 08 6a aa bd
       -0.07593703 0.016743079 -0.06913167 -0.08321005
000040 26 85 f4 3d d8 aa f2 bd 78 92 5f bd 64 d4 cf 3d
       0.119394585 -0.11848992 -0.054583043 0.10147932
000050 38 40 ca bd ce 62 cd 3d 90 55 1f 3d 44 ad 5e bd
       -0.0987553 0.10028611 0.038899958 -0.054364458
000060 80 97 d8 3b c8 9d eb bd 40 2d 84 bb 0a 4b d0 3d
       0.006609857 -0.11504704 -0.0040337145 0.101705626
000070 4c 96 99 3d 50 e2 b5 bd d0 2b 9f bc 9c 03 49 bd
       0.0749937 -0.08881056 -0.019430071 -0.049075708
000080 e8 02 95 3c f4 13 5c 3d a8 26 6e 3d a0 fc 61 3d
       0.018189862 0.053729966 0.058142334 0.055172563
000090 a0 4e 8f 3d cc 28 f0 bd d4 8f b7 bd 72 2d f4 3d
       0.069974184 -0.117265314 -0.0896298 0.119227305
0000a0 4e 17 9a bd e0 b6 e9 3c 84 7f 42 3d 68 9c 6b 3d
       -0.07523976 0.028529584 0.04748489 0.057522207
0000b0 16 f0 e7 bd e6 c0 dd bd a0 ff 9b 3b d8 fd e6 3c
       -0.1132509 -0.10827808 0.0047606975 0.028197214
0000c0 2a 0a 8e bd 60 a2 38 bc 5a c2 a0 3d 60 8b c4 bb
       -0.069355324 -0.011269182 0.078495696 -0.00599806
0000d0 46 61 f3 bd 38 41 4b 3d 06 d7 92 3d b0 59 ac 3c
       -0.11883788 0.049622744 0.07169919 0.02103886
0000e0 38 fa 54 bd 46 2f 9a 3d 08 b7 ba 3c 74 1e 33 bd
       -0.05199644 0.07528548 0.022792354 -0.043730214
0000f0 d0 d3 ae bd 74 fc de 3d 2c cb b0 3d 34 3f 88 3d
       -0.08536494 0.10887995 0.08632502 0.0665268
000100 ca dc 9a 3d 84 6a c6 3d c8 ca df 3c 34 79 13 3d
       0.075616434 0.09688285 0.027318373 0.03600426
000110 14 b7 2b bd 20 0a 7c bc 66 b5 ed bd e0 af fc 3d
       -0.041922644 -0.015383273 -0.11606865 0.12338233
000120 e2 cd d5 3d f0 07 98 3c c6 c7 f1 bd b4 59 3d 3d
       0.1043966 0.018558472 -0.11805682 0.046228126
000130 8c 36 15 3d c6 26 ee 3d 98 10 af bd 70 98 c6 bd
       0.036428973 0.11628489 -0.08548087 -0.09697044
000140 a0 ab e2 bc 34 7c c1 bd 90 18 e5 3c 68 88 66 bd
       -0.027669728 -0.09447518 0.027965814 -0.05628243
000150 18 f0 97 3d a8 87 c3 3c dc 82 50 bd a8 5a fb 3d
       0.07418841 0.023868397 -0.050906047 0.12273151
000160 38 45 33 bd 00 0e 87 3b 30 86 0f 3d 10 20 5b 3c
       -0.043767184 0.004121542 0.03504008 0.0133743435
000170 38 46 02 3d 54 31 d2 3d a4 96 a5 bd 8e f3 eb 3d
       0.031805247 0.10263315 -0.08085373 0.11521064
000180 d0 9d 7d bd e0 d3 85 3c f0 11 1b 3d 20 90 1a bd
       -0.06191808 0.016336381 0.037858903 -0.037735105
000190 e0 cd 5a bc b0 73 9b 3c 1c b9 11 bd aa ef ce 3d
       -0.0133547485 0.018976063 -0.035576925 0.10104306
0001a0 36 d0 b9 bd 86 4d e5 3d 10 ba e0 bc 50 51 c6 3d
       -0.09072916 0.11196427 -0.027432472 0.09683478
0001b0 04 a6 a4 bd b0 02 56 3c 7a 8a bd bd 34 a6 3e bd
       -0.080394775 0.013062164 -0.09254928 -0.046545222
0001c0 20 ae cb bc 7e 11 f7 3d ac 4e 01 bd 58 6b 4e 3d
       -0.024863303 0.12063883 -0.031569168 0.05039534
0001d0 7e 32 b4 bd 40 36 49 bd 2a 38 82 3d b2 ee 99 bd
       -0.08798693 -0.049124002 0.06358369 -0.07516231
0001e0 20 7c fb 3d f0 7e 48 3d ec 27 37 3d 56 33 ab 3d
       0.12279534 0.048949182 0.044715807 0.08359401
0001f0 e0 d5 34 3d de 57 d0 3d c0 66 ba 3d 88 df 6b bd
       0.04414928 0.10173009 0.09101629 -0.057586223
000200 c6 9c c4 3d 44 f1 3c 3d fc 94 a8 3d 00 d5 1d 3c
       0.09600215 0.046128526 0.082315415 0.009633303
000210 08 61 20 bd 90 68 e2 bd 92 03 93 3d 98 3f e6 3d
       -0.039155036 -0.110551 0.07178415 0.11242598
000220 9c f8 ac 3d 06 34 87 3d 1c fb 39 3d f0 d5 ce 3c
       0.08445856 0.066017196 0.045405492 0.025248498
000230 20 ae 22 bc f8 9d a2 bc b0 fa 7c bc fa be c8 3d
       -0.00992921 -0.019850716 -0.015440628 0.09802051
000240 00 4b fb bc 60 d0 39 bc 38 88 0e bd b6 3f fe 3d
       -0.030675411 -0.011341184 -0.034797877 0.12414496
000250 a2 91 aa 3d f0 a1 33 bc 7c 49 cf bd 40 aa 6b 3d
       0.083285585 -0.010963902 -0.10121438 0.05753541
000260 ec 9d 17 3d 1c 78 e6 3d 06 31 e1 bd 22 47 a4 3d
       0.03701584 0.11253378 -0.109956786 0.0802138
000270 90 74 c6 3d 28 ab 76 bd 20 5e aa bd 80 8b 2d 3d
       0.09690201 -0.06022182 -0.08318734 0.042369366
000280 08 2a 57 bd 48 32 36 3d 28 6e d1 bc fc c9 10 3d
       -0.05253032 0.044481546 -0.025565222 0.035348877
000290 f4 b2 a5 bd 1a c5 88 bd 00 a6 f9 b9 10 ad 1f 3c
       -0.08090773 -0.06678219 -0.0004761666 0.009745851
0002a0 fc 46 58 3d da d9 9f bd b8 d7 69 bd 74 ec aa bd
       0.05280207 -0.07805224 -0.05709049 -0.08345881
0002b0 e0 2e 47 3c 0c 30 3f bd f2 f0 eb 3d 80 92 dd ba
       0.012157172 -0.04667668 0.11520566 -0.0016904622
0002c0 b4 12 e6 bd 4e 1c cf 3d d4 4f d0 3d 68 e8 64 bd
       -0.11234036 0.101128206 0.10171476 -0.055885702
0002d0 38 54 39 bd 2c 1c 20 bd e8 cd c1 bd 10 22 ca 3d
       -0.045246333 -0.039089367 -0.094631016 0.09869778
0002e0 d0 d0 3d bc 4c 0a dc 3d 40 1a ea 3b 04 df b2 3d
       -0.011585429 0.107441515 0.0071442425 0.08733943
0002f0 b0 6c 16 3d a8 37 ef bc 54 df 27 3d 76 fc 80 bd
       0.036724746 -0.029201344 0.040984467 -0.06298153
000300 b4 fb 2d 3d 1c 59 cf 3d 78 d0 ae 3d c8 55 db bc
       0.04247637 0.10124418 0.08535856 -0.026774302
000310 70 e9 83 bc c4 25 7b 3d 98 53 fe 3d 02 a0 98 3d
       -0.016102523 0.061315313 0.12418288 0.07452394
000320 76 89 ea 3d b2 b9 cd bd 34 ba b4 bd d2 d2 df 3d
       0.11452 -0.10045184 -0.08824578 0.10928883
000330 b2 4c a0 3d 12 9e 9a 3d 14 d5 d4 3d 88 92 c7 3c
       0.078271285 0.07549681 0.10392204 0.024361864
000340 c4 5b 52 3d 7a d8 ef 3d 06 0a da bd 70 95 ee 3c
       0.051357046 0.117112115 -0.10646443 0.029123992
000350 c8 6c 0d 3d 5e 53 d0 3d b8 98 06 bd 50 17 e6 bc
       0.03452757 0.10172151 -0.032860488 -0.028087288
000360 ce 67 84 3d 58 45 3f 3d 8a ad d8 bd 10 2d 42 3c
       0.06465112 0.04669699 -0.10579975 0.011851564
000370 5a 53 ff 3d e8 f2 d3 bd 4c d0 da bd 70 99 55 3c
       0.1246707 -0.10349065 -0.10684261 0.013037071
000380 08 04 31 3d 68 92 d1 bd 44 cd 65 bd 40 41 2a bc
       0.043216735 -0.10233003 -0.05610396 -0.010391533
000390 58 f1 1e bd ec 0f 5c 3d 0e a1 d6 3d 38 c7 da bd
       -0.038804382 0.05372612 0.104799375 -0.10682529
0003a0 08 86 d3 bc a8 17 ea bc d6 9d e5 3d e0 c1 ea bb
       -0.025820747 -0.028575733 0.112117454 -0.007164225
0003b0 70 6b 16 bd e2 b1 cd 3d c0 14 40 bb e0 43 07 bd
       -0.036723554 0.10043694 -0.0029309243 -0.033023715
0003c0 00 2d 37 bb 48 a6 b4 3c 40 b8 f2 bc 2c 07 20 bd
       -0.0027950406 0.022051945 -0.029628873 -0.03906934
0003d0 94 3e 37 3d 7c b5 aa bd d8 1b d3 bd 94 5d c7 3d
       0.044737414 -0.08335397 -0.10308045 0.097346455
0003e0 42 d9 81 3d 70 b4 54 bc 58 44 f8 bc 48 8c 6a bd
       0.06340267 -0.012982473 -0.030306026 -0.05726269
0003f0 1e f5 9e bd 80 dc 37 bc d0 60 08 bd c4 d4 b8 3d
       -0.07761596 -0.011222005 -0.033295453 0.09024957

bias f4 [32]
000000 ec 29 58 3d 0c 6b d0 3d b6 c9 b7 bd f0 c9 21 bd
       0.052774355 0.101766676 -0.0897402 -0.039499223
000010 3e c2 fe 3d 00 98 28 3c 84 89 50 bd 9e 86 aa bd
       0.124393925 0.010290146 -0.050912395 -0.083264574
000020 36 09 b2 3d 00 40 54 bc d0 d0 dc 3d a4 ce 38 3d
       0.08693163 -0.012954712 0.10782015 0.045118943
000030 2c 8e 1b bd b8 dc a8 bd 48 9b 88 3d b0 0b c2 3c
       -0.037977383 -0.08245224 0.066702425 0.023687214
000040 bc b2 f7 3d dc 9d b6 bd 60 15 7d 3c 10 c7 98 bc
       0.12094638 -0.08916828 0.015446991 -0.018649608
000050 b6 20 de bd 5a c9 c7 3d a0 4a f7 3d a0 26 bf bb
       -0.10846083 0.09755202 0.120747805 -0.005833462
000060 50 d8 2b bc f0 69 50 bd d8 e3 97 3c 84 0b 8e bd
       -0.010488585 -0.05088228 0.018541262 -0.0693579
000070 2a 28 a3 3d 5c 32 1e bd 40 fb 4b bb 32 25 84 3d
       0.07966645 -0.038622245 -0.0031125098 0.06452407

weight f4 [1, 32]
000000 0f a5 eb 3d fd 03 b3 3d 66 fb 31 3c d9 8f 28 3e
       0.11506092 0.08740995 0.010863161 0.16461124
000010 4d d5 1c bd be 9b 1a 3e 75 34 cc bd 88 9e be 3d
       -0.038289357 0.15098473 -0.09970943 0.09307581
000020 fa 8b ae 3d 7e 22 0f be 08 68 1a be 61 3d 54 bc
       0.08522792 -0.13978001 -0.15078747 -0.012954087
000030 d0 4c 0b 3e e9 cb 74 bd 43 cc 96 3d 3e fc 1b 3e
       0.1360352 -0.059764776 0.073631786 0.15232942
000040 d3 71 13 be c1 c6 bf 3d 85 e5 1c bd 09 cb 04 3e
       -0.14398889 0.09364081 -0.038304824 0.12968077
000050 26 25 5e 3d b0 29 0d be 2f 58 c9 3d 3c b8 a2 bd
       0.054234646 -0.13785434 0.09831273 -0.07945296
000060 1c f2 ce bd 2e 50 f4 3d 8d b1 f8 3d 03 61 ba 3d
       -0.101047724 0.119293556 0.1214324 0.09100535
000070 4a 43 06 bd 8d 06 55 3c 77 b5 86 3d 9f 6f 2f 3e
       -0.032779016 0.01300205 0.065775804 0.17132424
