scripts/mlruns/1/models/m-61f5ad99e2e040e09b9e646f336df835/artifacts/data/model.pth (torch, 17021 bytes, 5 tensors)

weight f4 [64, 4]
00000000: d8d8 f33d fe8b aebe 2ae0 b23e 98bb 2e3e
00000010: cc47 4d3e 2876 8ebe 3c23 7cbe d0d2 1e3e
00000020: dcaa a73e 6077 ce3c 16df 863e 6e66 ec3e
00000030: 00fc 4e3b c468 2a3e c4b5 6bbe f4b6 4abe
00000040: 80d8 32be 86e3 ab3e e05d 1a3d c43d 253e
00000050: 8052 32bd bcb3 d33e 6093 573d 6040 f43d
00000060: d85d ab3e a067 fa3d 0082 703d d49e 2abe
00000070: 802f fc3d 2c8d 53be 785a e5be ca63 fabe
00000080: 4817 cdbd c8c0 44be d031 6b3d 107c 8cbd
00000090: 2225 b43e 58ca 523e 78f8 9e3d 24ae 9fbe
000000a0: e891 ab3e d243 b3be 40ba e63d 603d 7fbd
000000b0: 96f3 a63e 64f6 263e 7850 f93d a0f4 f7bc
000000c0: b873 eebd 60b0 10be 6608 fabe 9acc bb3e
000000d0: 28c4 09be 24f8 e83e e082 d63c f273 fbbe
000000e0: 9c88 f83e c672 fb3e ac88 733e 440b 103e
000000f0: 20a6 db3e 6806 9dbe 7630 f63e 625c 93be
00000100: 469d f73e 3e57 c93e 04bd e4be 72cb e83e
00000110: 40f5 343e 3c1c 99be 849f fa3e 640f c03e
00000120: 8821 9d3d 6284 a4be a8d7 dbbe c00a 79bc
00000130: 20de 59bd 0050 4a3a c622 90be d042 ccbe
00000140: c4f8 d13e 50ea 343d bc9e 83be 708d b3be
00000150: 40e0 773e ee3e 8e3e c687 89be 1893 b63d
00000160: 501b 043e a0be cdbd 5275 ac3e c074 583e
00000170: e07e c7be c0f1 debd d041 433e 50d0 a5bd
00000180: c0fc 00bd 40cd 6f3d c88c a13d 0076 cb3c
00000190: 6469 fabe d063 0c3e 988e c3bd 18cd e1be
000001a0: 58c7 42be 801f 94bc f688 b63e 4c1c 523e
000001b0: c415 843e 2847 333e 888c e5bd 501b 32bd
000001c0: 14a4 c23e f03d febd b8b1 62be c09b cc3d
000001d0: 44e0 11be da5a d4be d25f cb3e 7824 1dbe
000001e0: 1401 d13e 341d 4bbe b885 14be 8c10 f23e
000001f0: 30a8 ee3e 0065 a4bc 9e1a d43e a6a8 b4be
00000200: 34e8 3abe 80f0 c43c f620 ecbe c0ca 2fbd
00000210: ccfb 51be b082 f8bd 9848 f2be 0498 d4be
00000220: e089 593e f489 05be 74c9 91be 54db 1abe
00000230: e08d 0cbe 348d 173e 56fa ffbe 80c6 adbb
00000240: 246b 113e e6d0 e63e dce3 a0be f4b7 90be
00000250: 545e 0d3e 20d5 c33c 7cfb 093e 54c6 b03e
00000260: 146c e03e 0030 1fbd 0411 8d3e 3c21 193e
00000270: a829 453e 30fc 903d c06c 9cbe 802b 4b3d
00000280: 18a6 b73d 1ca7 fdbe b895 e9be 2055 c63e
00000290: f2e7 963e 9cf9 b2be 9066 b23d a40d 3dbe
000002a0: 9c68 9d3e 20fb afbd c858 d2bd 30dc 0dbe
000002b0: ec3b b43e 1017 b53e 54e3 973e 5ad7 ed3e
000002c0: 98aa 02be 80b0 ebbd 0895 a3bd 7891 493e
000002d0: d4c3 84be 08df b93e 902c 8d3d 7844 7a3e
000002e0: 782a 91bd a853 e03d da5d 91be f44b 733e
000002f0: 5415 113e 6201 99be 7054 d13e 3475 53be
00000300: c0b2 8fbe cc76 a1be 2410 e2be d861 9ebd
00000310: 8829 463e 048a febe b0f0 a73e a0ee 55bd
00000320: 36ec a5be 2276 fbbe 6057 863e 5882 bf3d
00000330: ac35 2bbe bc83 21be 2033 3d3d b27a 9bbe
00000340: 203b d83e c2ee a13e 40c7 5e3d f026 23bd
00000350: 1867 a43d 6c36 bebe e65c bf3e 50d7 b63d
00000360: d6af d83e fedf c8be b228 e8be dc91 68be
00000370: 50bb c03d a030 30be 6056 9ebc 2871 49be
00000380: fc53 53be d002 cabd 68c2 dfbd d6ea efbe
00000390: a20b 8abe 644e cc3e 6c11 b43e 1006 68be
000003a0: 74c9 c63e f898 7fbe d863 efbd 764d edbe
000003b0: 386f 593e f89a 7fbe dc7a 313e 5822 62be
000003c0: 34c0 07be 7e62 ad3e 60b2 12be c60c c63e
000003d0: 60e0 d33c 1246 c03e f030 4cbd 36a8 e3be
000003e0: 30bf ae3d b47a f23e 80d4 d1bb 9025 6b3d
000003f0: 6e1a e43e 46df 8abe 4e40 c7be f0f1 6bbd
0.11906594 -0.3409118 0.3493665 0.17063749 0.2004692 -0.2782452 -0.24622816 0.15510106
0.32747543 0.025203407 0.26342076 0.46171898 0.003158331 0.16641527 -0.23018557 -0.19796354
-0.174654 0.33572024 0.037687182 0.16136843 -0.04353571 0.41348064 0.052630782 0.11926341
0.33470035 0.12226796 0.058717728 -0.1666215 0.123137474 -0.20659322 -0.44795585 -0.48904258
-0.10014206 -0.19214165 0.05742055 -0.068596005 0.3518458 0.20585 0.077622354 -0.31187546
0.33509755 -0.3501268 0.11265993 -0.06231439 0.32607716 0.16304928 0.12173551 -0.030268013
-0.11643165 -0.14129782 -0.48834532 0.36679536 -0.13453734 0.45501816 0.026185453 -0.49111897
0.48541725 0.49111003 0.23782605 0.14066797 0.4290018 -0.3066895 0.48083848 -0.2878142
0.48362178 0.39324373 -0.44675457 0.45467716 0.1767168 -0.29904354 0.48949826 0.37511742
0.07672411 -0.3213225 -0.4293797 -0.015200317 -0.05319035 0.00077176094 -0.2815153 -0.39894724
0.41010106 0.04416877 -0.25707042 -0.35068846 0.24206638 0.27782387 -0.268614 0.08914775
0.12901044 -0.100461245 0.33683258 0.21138287 -0.38963985 -0.10885954 0.19068074 -0.08096373
-0.03149104 0.05854535 0.0788818 0.02483654 -0.48908532 0.1370995 -0.09548682 -0.44101787
-0.19021356 -0.018081427 0.35651368 0.20518607 0.25797856 0.17507613 -0.11208445 -0.04348308
0.38015807 -0.124141574 -0.22138107 0.099906445 -0.14245707 -0.41475564 0.39721543 -0.15345943
0.40821135 -0.19835359 -0.14504135 0.4727825 0.46612692 -0.020067692 0.41426557 -0.3528492
-0.18252641 0.02404046 -0.46118897 -0.042917967 -0.20506209 -0.12134302 -0.4732101 -0.4152223
0.21244001 -0.13040906 -0.2847401 -0.1512273 -0.13725996 0.14799958 -0.4999568 -0.005303204
0.14201027 0.45081252 -0.31423843 -0.28265345 0.13805515 0.023905337 0.1347484 0.34526312
0.43832457 -0.038864136 0.27552044 0.14954084 0.19254172 0.07079351 -0.3055172 0.04960203
0.08967227 -0.49541557 -0.4562204 0.3873682 0.29473835 -0.34956062 0.087109685 -0.18462235
0.30743873 -0.0859282 -0.1027084 -0.13853526 0.35201967 0.35369158 0.29665625 0.46453363
-0.12760389 -0.11508274 -0.0798741 0.19684398 -0.25930655 0.36302972 0.06893265 0.24440181
-0.070881784 0.10953456 -0.28391916 0.23759443 0.14168292 -0.29883868 0.40884733 -0.20650178
-0.28066063 -0.31535947 -0.4415294 -0.07733506 0.1935178 -0.49714673 0.32800817 -0.052229524
-0.32406777 -0.49113566 0.26238537 0.09351033 -0.16719693 -0.15772909 0.046191335 -0.30367047
0.4223261 0.3162747 0.05438924 -0.039832056 0.08027476 -0.37150896 0.37375563 0.08927786
0.42321652 -0.39233392 -0.45343548 -0.22711891 0.09410727 -0.17206049 -0.019328296 -0.19672072
-0.20637506 -0.09863818 -0.10925752 -0.46858853 -0.26962 0.39903557 0.35169542 -0.22658563
0.38825572 -0.24960697 -0.116889656 -0.4634816 0.21233833 -0.2496146 0.17332023 -0.22083414
-0.13256913 0.33864206 -0.14325857 0.3868162 0.025863826 0.3755346 -0.049851358 -0.44464272
0.0853256 0.4735924 -0.006403506 0.05740887 0.44551414 -0.2712347 -0.38916248 -0.057603776

bias f4 [64]
00000000: 04fc bb3e 8466 5bbe cce2 b83e 2ebd 8dbe
00000010: b0cf 943e 008f dd3d 6425 473e b8be 783e
00000020: d274 d43e 20c7 23be 9a43 e33e f8a9 bfbe
00000030: e0eb 08bd 9877 af3d fc46 ddbe 50dd e9bd
00000040: b23b 81be d8bb c53d 36f6 e2be b4ce a93e
00000050: 5080 75bd d41c 713e 1c89 f43e b092 573e
00000060: b81e 69be 30b2 56be 4a9e f7be 1c4b afbe
00000070: 72db ddbe 1841 07be becc bc3e 30ef a0be
00000080: cc61 f73e 5016 e23e 3206 febe 80e0 6fbd
00000090: 9a6f e0be 709c a9be 1e85 ebbe d2d4 9cbe
000000a0: 1041 8e3d 0e78 be3e f4fe afbe 86e2 a1be
000000b0: 4ac4 8cbe 464c a6be 28ed 26be 0213 dd3e
000000c0: ac8d f63e 6859 f9bd bc56 81be d0bc d83e
000000d0: 28f9 063e 0006 bebd eccd a73e 3497 58be
000000e0: f493 93be 7074 fabe f8b3 92bd dc38 913e
000000f0: 68ce b6be 4442 28be 8448 27be d441 3dbe
0.3671571 -0.21425825 0.36110532 -0.27683395 0.29064703 0.10818291 0.19447857 0.24291503
0.41495377 -0.15993929 0.44387513 -0.37434363 -0.033428073 0.085677326 -0.4321822 -0.11419165
-0.25240856 0.09654969 -0.4432847 0.33165514 -0.05993682 0.23546153 0.47760856 0.2105205
-0.22765625 -0.2096641 -0.48362952 -0.3423699 -0.43331486 -0.13208425 0.36874956 -0.31432486
0.483168 0.44157648 -0.49614102 -0.05856371 -0.43835145 -0.33127165 -0.45999998 -0.3063112
0.069460034 0.3720097 -0.343742 -0.31618136 -0.27493507 -0.32480067 -0.16301405 0.43178564
0.48154962 -0.12175256 -0.25261486 0.42331553 0.13180983 -0.09278488 0.32774293 -0.2115143
-0.28823817 -0.4891696 -0.071632326 0.28363693 -0.3570435 -0.16431528 -0.16336256 -0.18482143

weight f4 [32, 64]
00000000: 04cd 0fbd be72 b63d 0673 ddbd 8cee 3bbd
00000010: bc7f 213d b05d b23d 761b 953d a8a4 b4bd
00000020: 5a1b 823d 0cb1 22bd b87b 973c a448 88bd
00000030: 32c2 d9bd 94f1 7e3d 5280 d13d 7878 ffbd
00000040: 7ab7 a2bd 98cc c03d b64e 9e3d eed9 f53d
00000050: 2ca6 2f3d 88aa b93d a6fb b33d d883 cd3c
00000060: 205d fe3c a206 ea3d 8090 e8bc ae8b 99bd
00000070: 50a2 dbbc b083 5cbd f023 983c e023 de3c
00000080: c897 babd 229e a0bd 646c f3bd 905e cbbc
00000090: 509a 023d 3aba d5bd 60e8 1c3c c6d1 e5bd
000000a0: b2ac c5bd 747f 0d3d 3458 a53d 0029 81bd
000000b0: 76d4 c33d 70af e33d e454 2bbd c614 d3bd
000000c0: f68b fabd fa05 a23d 2eac febd a035 98bd
000000d0: 3463 33bd e0a1 ab3b 5444 c83d 50cc 9e3d
000000e0: 5e8c d43d 4018 70bb 2875 cb3c 002e 85bb
000000f0: 7c47 ad3d 82c1 c4bd e022 a53c ceef ecbd
00000100: 701b c2bc 8485 d03d a0de 263d 8ce1 5cbd
00000110: cc48 6f3d 7420 0abd e4da d3bd 64a0 64bd
00000120: 82e6 a5bd 709a 9b3d 50c9 2e3d c0e7 873d
00000130: 98bf c43d 1213 e43d 30fa 8f3c 6c7f 7b3d
00000140: ac5a 8fbd aef6 bb3d cab4 fa3d ce0a 803d
00000150: 2444 a1bd 2869 e43d 00d8 f0ba 0a3b f03d
00000160: 5c5f 6ebd e203 dc3d 64bf 2e3d 6cc8 f13d
00000170: f84a 9ebc 10dc 23bd 1068 423d 10f0 87bd
00000180: a810 5fbd ac5d 4b3d f061 1fbc aa39 bdbd
00000190: a0e1 debc 5c08 a2bd c0e7 b4bc 9872 873c
000001a0: 64d9 c13d 9c0b 5d3d f8b4 d23d 70d0 edbc
000001b0: c494 01bd c01d 2ebd d017 e1bc f024 123c
000001c0: b223 87bd fc87 66bd 9877 ecbc 002d c43d
000001d0: e0a6 b73c 5e3b e33d 300c a4bc 4030 6d3c
000001e0: 3a7a febd 5c37 c13d a40d 7abd 146a 17bd
000001f0: b8b6 bfbd f684 813d 548b b2bd 20ac 3ebc
00000200: 24e3 ec3d 9eb7 cfbd 2889 a13d 8895 3b3d
00000210: f8cb d8bd fee7 aebd 74cc 353d 6ccb 053d
00000220: ce9a c33d 9c18 573d 38ec 0cbd 58bd 163d
00000230: 7854 0bbd 12ab acbd 5c01 12bd d89b debd
00000240: bcae 773d d08b 49bd 28e5 f8bc 8a08 ca3d
00000250: 30a1 23bd 7854 bcbd 6e05 ffbd e8d2 77bd
00000260: 00f1 143a 8cf4 cf3d 4206 fcbd 7473 0c3d
00000270: ec36 febd 2899 35bd 9a55 d83d 06c6 b93d
00000280: fe2b e7bd e0fa 21bc 405f 6ebc 90ef 603d
00000290: 6066 223d 4a61 ff3d 3095 babd c04e fdbb
000002a0: 00ef fa3d 66b0 8e3d 7060 5dbc 849f 9ebd
000002b0: e2b7 8abd 40cb 24bc be80 ac3d 109d 4a3d
000002c0: 1a54 ae3d 3085 db3d 80c3 843a 7457 dabd
000002d0: 7438 783d 3cb8 efbd 9eed fa3d 520c f33d
000002e0: fac1 ca3d 1440 323d 7a95 edbd 48c9 07bd
000002f0: 5eeb f1bd 44fe 0dbd e62c 86bd 782d f8bd
00000300: bc06 0f3d 00ad 9abb 661a d7bd 20ba 903b
00000310: d0c9 f43c ec98 41bd 8048 4e3d c665 89bd
00000320: 38ba a73c 8036 cebd f07c 0a3d 08b8 85bd
00000330: 7092 bf3d ccfd a0bd 245d 983d 283f 823d
00000340: 929d dbbd a853 e4bc 50be 5dbc e4c4 593d
00000350: 8073 593c 9657 b23d 9279 fc3d fc38 913d
00000360: c04a 87bd f243 80bd 48a7 b43d d284 fbbd
00000370: 96ef 95bd 90c3 9ebc 10f8 1ebc 387c bc3d
00000380: 7e5c a43d 9015 4bbc 3855 68bd b4d1 ea3d
00000390: 9a64 963d a683 b7bd b269 8bbd 1a14 e4bd
000003a0: 20fc a1bb 586e 2a3d c82b 4b3d c8b8 ef3d
000003b0: 9c90 223d 0032 0cba 725a b0bd fe33 f4bd
000003c0: 4452 8b3d 6405 38bd 8cba b8bd 4011 7ebc
000003d0: e0b5 c4bd 8098 2abc 9c19 cc3d 5828 dabc
000003e0: 160d aabd 0ce0 803d e0a5 823b e6e2 803d
000003f0: faa8 bc3d 40d3 f2bd 40da 1a3c e02f 4a3c
-0.035107628 0.08908604 -0.108129546 -0.045881793 0.039428458 0.08709276 0.072806284 -0.08820468
0.06352873 -0.039719626 0.01849161 -0.0665448 -0.10632743 0.062242106 0.10229553 -0.124741495
-0.079451516 0.09414023 0.07729857 0.120044574 0.042883083 0.090657294 0.087882325 0.025087282
0.031050265 0.11427046 -0.028389215 -0.07497345 -0.026810795 -0.053836524 0.018571824 0.027116716
-0.09110981 -0.078426614 -0.11885908 -0.024825364 0.031885445 -0.104359105 0.009576887 -0.11221652
-0.0965208 0.034545377 0.08073464 -0.06306648 0.09562008 0.111174464 -0.041829005 -0.103066966
-0.12233727 0.07911296 -0.124351844 -0.07432103 -0.04379578 0.005237803 0.097786576 0.07753813
0.103783354 -0.0036635548 0.024836138 -0.0040643215 0.084609 -0.09607221 0.020158231 -0.115691766
-0.023694724 0.10181716 0.040739655 -0.053926036 0.058419034 -0.033722356 -0.103444844 -0.055817023
-0.081006065 0.07597816 0.042672455 0.06636 0.09606856 0.1113645 0.017575353 0.061400816
-0.06999716 0.0917791 0.12241514 0.06252061 -0.07874325 0.111528695 -0.001837492 0.11730011
-0.05819641 0.10742928 0.042662993 0.118058056 -0.019322857 -0.04000479 0.047462523 -0.06637585
-0.054459244 0.04964988 -0.00972794 -0.09239514 -0.027207196 -0.07911751 -0.022083163 0.016534135
0.09465292 0.05396615 0.10288423 -0.029030055 -0.031636015 -0.04250884 -0.027477175 0.008919939
-0.06598605 -0.05628203 -0.02886562 0.095788956 0.02241844 0.11095308 -0.020025343 0.014476836
-0.124256566 0.09434387 -0.061048165 -0.0369664 -0.09361023 0.063241884 -0.08717981 -0.0116377175
0.11566761 -0.10142444 0.078874886 0.0457969 -0.10585779 -0.08540343 0.044384435 0.0326647
0.09551011 0.052513704 -0.034404963 0.036801666 -0.034016103 -0.084310666 -0.035645828 -0.108695686
0.060469374 -0.0492056 -0.030382708 0.0986491 -0.039948642 -0.09195799 -0.124522075 -0.06050387
0.0005681664 0.101540655 -0.12305881 0.034289792 -0.12412819 -0.044335514 0.10563202 0.09070973
-0.11287688 -0.009886473 -0.014549077 0.054915965 0.039648414 0.12469728 -0.091104865 -0.007730335
0.12252617 0.06967239 -0.013511762 -0.07745269 -0.06773354 -0.010058224 0.08422993 0.049466193
0.08512135 0.10718763 0.0010129064 -0.106612116 0.060600713 -0.11705062 0.12252353 0.11867584
0.09900279 0.04351814 -0.11600776 -0.03315094 -0.11812471 -0.034666315 -0.065515324 -0.121180475
0.03491853 -0.0047203302 -0.10503082 0.004416719 0.029881388 -0.04726498 0.05036211 -0.06708865
0.020474538 -0.10068989 0.033810556 -0.06529242 0.093541026 -0.07860908 0.0743964 0.06359702
-0.107234135 -0.027871922 -0.013534144 0.053166285 0.013272166 0.08708112 0.12327875 0.07090947
-0.06606054 -0.062629595 0.08820969 -0.12281193 -0.07321088 -0.01938036 -0.009702697 0.0920338
0.08025454 -0.012395278 -0.056721896 0.11465779 0.07343407 -0.08960657 -0.06807269 -0.111366466
-0.0049433857 0.04160914 0.0496023 0.11705166 0.03968869 -0.0005348027 -0.08611001 -0.11923979
0.068028 -0.044927016 -0.09019956 -0.015507042 -0.096050024 -0.010412335 0.09965822 -0.026630566
-0.08303277 0.062927336 0.003987059 0.062932774 0.09211917 -0.11856699 0.009451449 0.012340516

bias f4 [32]
00000000: 5275 fc3d 9807 e1bd b4fd 093d 24b6 883d
00000010: 8eb4 9bbd 7a8d f8bd faac debd 7e00 e53d
00000020: 447e e3bd f01d eebd 688f a7bd 6007 a43d
00000030: a893 6d3d 1ab9 c7bd 7a02 8bbd 8270 f83d
00000040: 8065 24bb 28dc eebd 6ce2 7b3d 6885 febd
00000050: 0418 a33d e2ed 863d e447 353d c0fe 7ebc
00000060: 2825 c9bd 801d 3e3d b453 5b3d 66bf b3bd
00000070: 80da a23b c02b 663c c650 b8bd 3a9c ee3d
0.123270646 -0.109877765 0.033689216 0.066753656 -0.076027974 -0.121363595 -0.108728364 0.111817345
-0.11108068 -0.11626804 -0.081816494 0.08009219 0.058002144 -0.09752102 -0.06787582 0.12130834
-0.0025084913 -0.11663085 0.06149523 -0.12427789 0.07963565 0.06588341 0.044258013 -0.015563667
-0.0982154 0.046414852 0.053546622 -0.08776741 0.004969895 0.014048517 -0.08999781 0.116508916

weight f4 [1, 32]
00000000: f05b c53d 0bcc 163e 7688 65bd ae4c 803d
00000010: 85e8 eb3d 8aeb 12bd 0e89 a9bd 99bb da3d
00000020: 419e c53d 5476 b13c 4b1b 9b3d 1b2e 123e
00000030: 8460 03be 7ea8 95bd 9e26 293e 75f9 2abe
00000040: 37c3 1ebe bb29 3b3c 271b 8c3d 915d 85bd
00000050: 3368 e3bd bbf2 cf3d 03dc 7a3d 7c61 9f3d
00000060: 6f5a ccbd 496d 093e 39fe 2ebe d8cb 2d3d
00000070: 34fa 533d 73cb 2c3d 3248 86bd 36b1 2ebe
0.09636676 0.14726274 -0.056038342 0.062646255 0.11518959 -0.03586916 -0.08278094 0.10680313
0.09649325 0.021662869 0.07573565 0.142754 -0.12829787 -0.07307528 0.16518638 -0.16696723
-0.15504156 0.011423524 0.068411164 -0.06511987 -0.11103859 0.10153719 0.061244976 0.077822655
-0.09978186 0.13420595 -0.17089166 0.04243073 0.051752284 0.04218621 -0.06556739 -0.17059788
