scripts/mlruns/1/models/m-7a6caa60f8744b67a9527c4bf4669bae/artifacts/data/model.pth (torch, 17021 bytes, 5 tensors)

weight f4 [64, 4]
0	0xbc46de00	-0.01213789
1	0xbec381c4	-0.3818494
2	0x3ece410a	0.40283996
3	0xbe4d8a18	-0.2007221
4	0xbca4c940	-0.020115495
5	0xbe81cd1c	-0.253518
6	0x3dd289f0	0.10280216
7	0xbed24a84	-0.41072476
8	0x3ec6a920	0.38800907
9	0x3e240290	0.16016603
10	0xbdf77630	-0.12083089
11	0x3ca270a0	0.019829094
12	0x3ec72c72	0.38901097
13	0x3eaac8bc	0.33356273
14	0xbda95ca0	-0.0826962
15	0x3e0f90d4	0.14020091
16	0x3d8882d8	0.066655815
17	0xbe935d24	-0.28781998
18	0x3e47aa24	0.19498497
19	0xbec6a8d4	-0.3880068
20	0x3ee84388	0.45364022
21	0x3e6970c4	0.22796923
22	0xbea27da6	-0.31736487
23	0x3ec719ba	0.38886815
24	0xbeafbf2a	-0.34325534
25	0xbd619330	-0.05507201
26	0xbe704e90	-0.23467469
27	0xbd97c110	-0.074098706
28	0x3e6868f8	0.22696292
29	0xbe4b5e74	-0.1986025
30	0x3e334154	0.1750539
31	0x3ea3028a	0.31837875
32	0x3eef104e	0.46692127
33	0xbda43b50	-0.080191255
34	0x3e9e6dcc	0.30943143
35	0xbed20d2e	-0.4102568
36	0x3ef40506	0.47660083
37	0xbd0a7800	-0.033805847
38	0xbef7135a	-0.48256952
39	0x3dd99458	0.106239974
40	0x3e747b88	0.23875248
41	0xbd9e5c20	-0.07732415
42	0x3dcd6250	0.10028517
43	0x3e351a24	0.17685753
44	0xbd233160	-0.03984201
45	0xbead1bf6	-0.33810395
46	0xbef291c8	-0.47376847
47	0x3ebbca8c	0.36677969
48	0xbe48c4a8	-0.19606268
49	0xbe78bc8c	-0.24290675
50	0x3e9beec2	0.30455595
51	0xbe414890	-0.18875337
52	0x3e8e485e	0.27789587
53	0x3eacecb6	0.33774346
54	0x3ef4d958	0.4782207
55	0x3e5c9190	0.21539903
56	0xbefe4b16	-0.4966666
57	0xbec514cc	-0.3849243
58	0x3e623544	0.22090632
59	0x3d0a1260	0.03370893
60	0xbee881c6	-0.4541151
61	0x3ca41c00	0.020032883
62	0xbee0a99a	-0.43879396
63	0xbe7f2120	-0.2491498
64	0xbe20aae0	-0.15690184
65	0x3dc2e120	0.095155954
66	0x3e08c77c	0.13357347
67	0x3e772984	0.2413693
68	0x3e747be0	0.2387538
69	0x3e9384a0	0.28812122
70	0xbdf31808	-0.11869818
71	0xbe5ee6c4	-0.21767718
72	0xbea38aec	-0.31941926
73	0xbe742ce0	-0.23845243
74	0xbec7056e	-0.3887133
75	0xbe9519c0	-0.29121208
76	0x3e956408	0.2917788
77	0xbd1fb290	-0.03898865
78	0xbebbf874	-0.36712992
79	0xbe1f18d8	-0.15536821
80	0xbebd89ee	-0.37019295
81	0x3d315400	0.043293
82	0xbd4e4090	-0.05035454
83	0xbe35fba4	-0.17771775
84	0xbe8d11ac	-0.27552545
85	0xbc98caa0	-0.018651307
86	0x3e194b04	0.14970022
87	0xbea44236	-0.32081765
88	0x3da062e0	0.07831359
89	0x3eb16b94	0.34652388
90	0x3eeee90e	0.46662182
91	0x3ecf1bdc	0.40450943
92	0xbcf8b2a0	-0.030358613
93	0xbef1b7fa	-0.47210675
94	0xbe7b7bd8	-0.24558961
95	0x3eac1676	0.33610886
96	0x3e37c270	0.17945266
97	0x3dd1c508	0.10242659
98	0x3ee81a72	0.45332676
99	0xbefc2cc0	-0.49252892
100	0x3da7b498	0.081887424
101	0x3efe3c9a	0.4965561
102	0x3c5f7b80	0.013640285
103	0x3ec1a2c6	0.378195
104	0x3eeb8b54	0.46004736
105	0xbef370ca	-0.4754699
106	0xbea27008	-0.31726098
107	0xbe986e46	-0.29771632
108	0x3e774210	0.24146295
109	0xbe7a8c2c	-0.24467534
110	0x3e062cac	0.13102978
111	0xbae95e00	-0.0017804503
112	0xbef0bc3c	-0.4701861
113	0xbeb3e89c	-0.35138404
114	0x3d9a2128	0.07525855
115	0xbdb31050	-0.08743346
116	0xbee3caf4	-0.44490778
117	0x3edae226	0.42750663
118	0xbd576150	-0.05258304
119	0x3eb3181e	0.34979337
120	0x3eaf7372	0.34267765
121	0x3e33418c	0.17505473
122	0x3eda696e	0.4265856
123	0x3edab448	0.4271567
124	0xbe8b8432	-0.27249295
125	0x3e88b2d2	0.2669893
126	0x3de2ffb8	0.11083931
127	0xbef7394a	-0.48285896
128	0x3e838ae2	0.25691897
129	0x3ecee576	0.4040944
130	0x3deaa3a8	0.11456996
131	0x3ec2fa7c	0.3808173
132	0x3e788f5c	0.24273437
133	0xbee0ce7a	-0.4390753
134	0x3c83a0e0	0.016067922
135	0xbed9baa6	-0.42525214
136	0x3cd40700	0.025882244
137	0x3efb0a58	0.4903133
138	0xbb57a300	-0.0032903552
139	0x3cd571a0	0.026055157
140	0xbecdb990	-0.40180635
141	0x3daa9e70	0.08331001
142	0x3ee111ac	0.43958795
143	0x3e0af37c	0.13569444
144	0xbe7785ac	-0.24172086
145	0xbd500150	-0.0507825
146	0x3ec47fc4	0.38378727
147	0xbe1ec258	-0.15503824
148	0x3d5cb6f0	0.0538854
149	0x3e8957d2	0.26824814
150	0x3d09c4b0	0.03363484
151	0xbeb9715e	-0.36219305
152	0x3ea3d8a4	0.3200122
153	0x3dbcec38	0.09224743
154	0xbe536268	-0.20643008
155	0xbe82d322	-0.25551707
156	0x3edce58a	0.43143874
157	0x3e2d5b1c	0.16929287
158	0xbe88ca98	-0.26717067
159	0xbe5318c0	-0.2061491
160	0x3ef35656	0.47526807
161	0x3efc5bbc	0.49288738
162	0x3e826228	0.25465512
163	0xbe38c19c	-0.18042606
164	0x3e50e1c0	0.20398617
165	0x3d5dc7b0	0.054145515
166	0xbed83cce	-0.4223389
167	0x3e857514	0.26065886
168	0x3edb1fdc	0.42797744
169	0xbe016b0c	-0.12638491
170	0xbd55b470	-0.05217403
171	0xbe736128	-0.23767531
172	0x3e73a48c	0.23793238
173	0x3e783344	0.24238306
174	0x3ed0e46c	0.40799272
175	0x3d994858	0.074845016
176	0xbe336ce4	-0.17522007
177	0xbdd8da20	-0.10588479
178	0x3ed0e5f0	0.40800428
179	0x3ef31ca2	0.47482783
180	0xbe2b2d68	-0.1671654
181	0xbe16a3f0	-0.14710975
182	0x3e69a0ac	0.22815198
183	0xbe275250	-0.16339993
184	0x3ef0e922	0.47052866
185	0x3ed6845e	0.41897863
186	0x3efa7218	0.48915172
187	0xbd827370	-0.06369674
188	0xbe070b48	-0.13187897
189	0xbe95f8ba	-0.29291326
190	0x3eb0624e	0.3445
191	0xbcf60480	-0.030031443
192	0xbe980e96	-0.29698628
193	0x3db34b48	0.08754593
194	0x3ce24580	0.02762103
195	0x3d94c710	0.07264531
196	0xbd36f880	-0.04467058
197	0x3ead2f9a	0.3382538
198	0xbe65c148	-0.22437012
199	0xbcb549e0	-0.022129953
200	0x3e1e58c4	0.15463549
201	0xbd8322b0	-0.064031005
202	0x3d82ea30	0.06392324
203	0x3ea52db0	0.3226142
204	0x3d7e1750	0.06203395
205	0x3ea7c55c	0.3276776
206	0xbdd7d888	-0.10539347
207	0xbec842ec	-0.39113557
208	0x3e95edc2	0.29282957
209	0xbe709ad0	-0.23496556
210	0x3e81c176	0.2534291
211	0x3ef4296e	0.47687858
212	0xbeccbc5c	-0.39987457
213	0x3eec7b62	0.46187884
214	0xbeb5973e	-0.3546695
215	0x3ef84304	0.4848863
216	0xbe37a690	-0.17934632
217	0x3e92f91a	0.28705674
218	0xbefdd99a	-0.4958008
219	0x3dab0c38	0.0835194
220	0xbec05e70	-0.3757205
221	0x3d8f26e8	0.06989843
222	0xbeb5367a	-0.35393125
223	0x3ed66d28	0.41880155
224	0x3eed4532	0.46341854
225	0xbe753418	-0.23945653
226	0xbde99498	-0.11405295
227	0x3e047f94	0.12939292
228	0xbeda5428	-0.4264233
229	0xbeaf2dde	-0.3421468
230	0x3eda75d6	0.42668027
231	0xbeb32ef0	-0.34996748
232	0x3ef4b52a	0.47794467
233	0xbe720c98	-0.23637617
234	0x3ea39a0c	0.31953466
235	0xbe3055fc	-0.172203
236	0x3e0ff848	0.14059556
237	0xbed1cb0e	-0.4097523
238	0xbec1a356	-0.37819928
239	0xbead2f36	-0.33825082
240	0x3ef9df44	0.4880315
241	0xbdbae3f0	-0.09125507
242	0xbef8449c	-0.48489845
243	0xbca52280	-0.020158052
244	0x3ee90bc2	0.45516783
245	0x3eda1ca0	0.42599964
246	0x3db94468	0.090462506
247	0x3eeaefc2	0.45886046
248	0xbdb018d8	-0.085984886
249	0xbebcac42	-0.36850172
250	0x3e14e0d8	0.14538896
251	0xbeae9a06	-0.34101886
252	0xbee67156	-0.45008343
253	0xbe828d5c	-0.25498474
254	0xbd33e3c0	-0.04391837
255	0xbde67cd0	-0.11254275

bias f4 [64]
0	0x3eb4a1ba	0.35279638
1	0xbeb57cba	-0.3544672
2	0xbe3e41a4	-0.18579727
3	0x3ee06134	0.4382416
4	0x3e68f29c	0.22748798
5	0xbe72d758	-0.2371496
6	0xbef1991c	-0.47187126
7	0x3ed71fac	0.4201635
8	0xbed25e58	-0.41087604
9	0xbe703358	-0.23457086
10	0xbde5de70	-0.11224067
11	0x3ecc0daa	0.39854175
12	0x3dc66618	0.096874416
13	0x3e85522e	0.2603926
14	0xbe9362be	-0.28786272
15	0x3db93288	0.09042841
16	0xbe6530d0	-0.22381902
17	0x3e17b3d8	0.14814699
18	0x3ed04116	0.40674657
19	0xbe2d6cac	-0.16935986
20	0x3e99a7b8	0.30010772
21	0xbeae9c6e	-0.3410372
22	0x3e78a69c	0.24282306
23	0xbe9d8618	-0.30766368
24	0x3e826250	0.2546563
25	0xbea8fb24	-0.33004105
26	0xbec43e92	-0.38328987
27	0xbe9f1f80	-0.3107872
28	0x3ee942e6	0.45558852
29	0x3e8a16c8	0.26970506
30	0xbe615804	-0.22006232
31	0xbd8112c8	-0.0630241
32	0x3e0fff3c	0.14062208
33	0xbdfb8c50	-0.12282622
34	0x3ef102ce	0.47072452
35	0x3e82c7a6	0.25542945
36	0xbebf6dd4	-0.3738848
37	0x3edda254	0.4328791
38	0x3e37be44	0.17943674
39	0xbd0d7580	-0.034535885
40	0x3ef2344e	0.4730553
41	0x3e3e370c	0.18575686
42	0xbe2799cc	-0.16367263
43	0xbeeed848	-0.46649384
44	0xbe9b420c	-0.30323827
45	0xbeb5bf2a	-0.3549741
46	0xbebdbf30	-0.37059927
47	0x3d203390	0.039111674
48	0x3e83abc8	0.25716996
49	0x3df104b8	0.11768478
50	0xbef4ed04	-0.4783708
51	0xbe9fcd2c	-0.3121122
52	0x3dac43e8	0.084113896
53	0xbd7c3480	-0.061573505
54	0x3de7d8f8	0.113206804
55	0xbe5de78c	-0.2167036
56	0xbe6d0fb4	-0.23150522
57	0x3e41859c	0.18898624
58	0xbe91289e	-0.283513
59	0x3ec271fe	0.37977594
60	0x3ec71228	0.3888104
61	0x3e164f80	0.14678764
62	0xbecde084	-0.40210354
63	0x3e8860b6	0.26636285

weight f4 [32, 64]
0	0x3d6876f0	0.056754053
1	0xbdde72a8	-0.10861713
2	0x3de15f9a	0.11004563
3	0x3cd98750	0.02655378
4	0x3ddcb384	0.107764274
5	0x3d874176	0.066042826
6	0x3dce882e	0.10084568
7	0x3dd31734	0.1030716
8	0x3d2ea068	0.042633444
9	0xbddced42	-0.10787441
10	0xbcef1fc8	-0.02918996
11	0xbdde7358	-0.10861844
12	0x3ddc849e	0.10767482
13	0x3da573d4	0.08078733
14	0xbd84ad4c	-0.06478366
15	0xbd85a994	-0.06526485
16	0xbdca54b8	-0.0987944
17	0xbdeab4ce	-0.11460267
18	0x3de8eb66	0.11373024
19	0x3def2610	0.11677182
20	0x3cbac350	0.02279821
21	0x3ce7d958	0.02830188
22	0x3dc06618	0.09394473
23	0xbdaeadbe	-0.085292324
24	0x3bc7f2c0	0.006101936
25	0x3d8f85f8	0.070079744
26	0x3c46a430	0.012124106
27	0xbc875c48	-0.016523495
28	0xbdeaf072	-0.114716426
29	0xbcf3a8b8	-0.029743537
30	0x3c88c590	0.016695768
31	0xbd8af876	-0.067856714
32	0xbdb9cb3a	-0.090719655
33	0xbd16b060	-0.036789298
34	0x3c9dc7a8	0.019260243
35	0x3d679f0c	0.056548163
36	0x3dc25e72	0.0949067
37	0xbc52cd10	-0.0128662735
38	0x3c8bcc58	0.017065212
39	0xbd83a1a6	-0.06427316
40	0xbbc5b2e0	-0.0060332865
41	0x3d7335d4	0.059377506
42	0x3ce746e8	0.028232053
43	0xbd5ff23c	-0.054674372
44	0xbd8c62c4	-0.068547755
45	0x3de85cc6	0.1134582
46	0x3dc08d98	0.09402007
47	0xbd2a0730	-0.04151076
48	0x3c936118	0.017990634
49	0xbd8e9154	-0.06961313
50	0xbbebcfe0	-0.0071964115
51	0xbd469c6c	-0.04848902
52	0xbc17e9c0	-0.009272039
53	0xbc9e1e38	-0.019301519
54	0x3dcf0794	0.10108867
55	0xbdbafc36	-0.09130137
56	0xbdd841d2	-0.10559429
57	0xbd4b2588	-0.04959634
58	0xbd751164	-0.059831038
59	0xbdafaa42	-0.08577396
60	0x3bd55920	0.0065108687
61	0xbd8e980a	-0.06962593
62	0x3dc936ea	0.09824927
63	0x3db0fe96	0.086423084
64	0xbd40bfcc	-0.04705791
65	0xbd93d55a	-0.07218428
66	0x3b526d80	0.0032108724
67	0xbc7eda10	-0.01555492
68	0xb92b6000	-0.00016343594
69	0x3d65f680	0.056143284
70	0xbde48cc0	-0.111596584
71	0xbdef7456	-0.11692111
72	0xbca345d0	-0.01993075
73	0x3de2980c	0.11064157
74	0xbc634c80	-0.0138732195
75	0x3def4ada	0.11684199
76	0x3dda708a	0.106659964
77	0x3d90a2c0	0.07062292
78	0x3dcd7308	0.10031706
79	0x3bec44c0	0.007210344
80	0xbd921786	-0.07133393
81	0x3df68764	0.120375425
82	0xbda7ff76	-0.08203022
83	0xbdf1425a	-0.11780234
84	0x3cf26ea8	0.02959378
85	0x3dccee48	0.10006386
86	0xbd1f4f98	-0.038894266
87	0xbd1a89e4	-0.03772916
88	0xbdb3523c	-0.08755919
89	0xbdf0a904	-0.11750987
90	0x3deb20e0	0.1148088
91	0x3d8a7d40	0.06762171
92	0x3d0e3918	0.034722418
93	0x3db40912	0.087907925
94	0x3d33a9e8	0.043863207
95	0xbd6c85d4	-0.057744816
96	0x3d39b2ec	0.04533665
97	0x3dbac7ba	0.09120126
98	0x3d472770	0.048621595
99	0x3dc7b520	0.09751344
100	0x3d395c5c	0.045254096
101	0xbde6e81a	-0.112747386
102	0x3df88784	0.121352226
103	0x3adecf80	0.0016999096
104	0xbccbfa58	-0.024899647
105	0xbd0bbcd4	-0.034115627
106	0xbde9d78e	-0.11418067
107	0xbce849a8	-0.028355435
108	0x3caa41a8	0.02078326
109	0xbd82de84	-0.06390098
110	0xbcc7f350	-0.024408013
111	0xbc2e62c0	-0.010643661
112	0xbd5b4d98	-0.053540796
113	0x3d4d5254	0.050127342
114	0xbdf41722	-0.11918475
115	0xbd340a3c	-0.043955073
116	0x3df05e08	0.11736685
117	0x3d990106	0.07470898
118	0x3d8c4c9c	0.068505496
119	0xbaf43d00	-0.0018633902
120	0xbd1c01f4	-0.0380878
121	0x3dcbe8b4	0.09956494
122	0x3d0d04c0	0.034428358
123	0x3a698700	0.0008908361
124	0x3db87508	0.09006697
125	0xbdf7fb50	-0.12108481
126	0x3d4286b8	0.04749176
127	0x3d9c68f8	0.07637209
128	0xbdb5e89c	-0.08882257
129	0x3ddefa0a	0.10887535
130	0x3d75d614	0.060018614
131	0xbda38e56	-0.07986133
132	0xbdb3e2de	-0.08783506
133	0x3cc24108	0.02371265
134	0x3df0ff62	0.117674604
135	0x3cd96c48	0.02654089
136	0xbd0d12f0	-0.03444189
137	0xbc966150	-0.01835695
138	0x3def3a44	0.11681035
139	0x3db58ae2	0.088643804
140	0x3ca54380	0.020173788
141	0xbd498f3c	-0.049208865
142	0xbc94ab18	-0.01814799
143	0xbdc3a714	-0.09553352
144	0x3cbf3c48	0.023344174
145	0x3d1c11e0	0.038102984
146	0x3cfd76f0	0.030940503
147	0x3d0f6c0c	0.03501515
148	0x3b815e80	0.003948033
149	0x3dd3ee38	0.10348171
150	0x3d067cdc	0.03283392
151	0x3da95ac6	0.08269267
152	0xbdccab6c	-0.09993634
153	0x3de748a2	0.112931505
154	0x3da44014	0.080200344
155	0xbbe2fd60	-0.0069271773
156	0x3de0e07c	0.10980317
157	0xbd045ed0	-0.032316983
158	0x3bd1a940	0.00639835
159	0x3d810ee8	0.06301671
160	0xbc550ff0	-0.013004288
161	0x3d4d6b24	0.050151005
162	0xbdc65880	-0.09684849
163	0x3dfb1d24	0.122614175
164	0x3c83b4f8	0.016077504
165	0xbd8eb12e	-0.06967388
166	0xbd622bf0	-0.055217683
167	0x3d42bf98	0.047546
168	0xbd4ac0d8	-0.049500316
169	0xbdf3a770	-0.118971705
170	0x3d865000	0.065582275
171	0xbccbcb98	-0.024877355
172	0xbba2b640	-0.0049655735
173	0xbd02b364	-0.03190936
174	0x3dfaa660	0.12238765
175	0x3ccd96b0	0.025096267
176	0xbdb319ce	-0.08745156
177	0x3c871358	0.016488716
178	0xbdae7e24	-0.08520153
179	0xbdc5e7f8	-0.09663385
180	0xbb92b800	-0.004477501
181	0x3dace668	0.08442384
182	0x3d067508	0.032826453
183	0xbdb316d2	-0.08744587
184	0x3d1766e0	0.036963344
185	0xbdb6dc6e	-0.089287624
186	0x3d61826c	0.05505602
187	0x3bb5f720	0.0055531412
188	0x3cf44ba8	0.029821232
189	0x3d1d0014	0.038330153
190	0xbde729ae	-0.11287247
191	0x3db2257c	0.08698556
192	0x3d67f188	0.056626827
193	0xbdc6ef44	-0.09713605
194	0xbd6fa47c	-0.058506474
195	0xbbd61020	-0.006532684
196	0x3dc58120	0.09643769
197	0xbd9349bc	-0.07191798
198	0x3df5b40e	0.11997233
199	0xbd3c3cd0	-0.045956433
200	0x3c3f0db0	0.011660978
201	0x3df1ed8c	0.118128866
202	0xbcd0ad68	-0.025473312
203	0xbd906bbe	-0.070518
204	0xbb857160	-0.0040723532
205	0x3d22ea28	0.03977409
206	0x3de4de2a	0.11175187
207	0xbd456f08	-0.04820159
208	0xbdabe9ae	-0.0839418
209	0x3db3ec6c	0.08785328
210	0x3d83ce6c	0.06435856
211	0xbdeeb476	-0.11655514
212	0xbd810246	-0.06299262
213	0x3d8f7d4a	0.07006319
214	0x3cf9c4f8	0.03048943
215	0x3ddf8772	0.10914506
216	0xbda90786	-0.08253388
217	0x3bd3be40	0.0064618886
218	0x3d24dbfc	0.040248856
219	0xbd8113aa	-0.06302579
220	0xbc6e75e0	-0.014554471
221	0xbc8c6e08	-0.01714231
222	0xbd78f674	-0.06078191
223	0x3d4b1160	0.049577117
224	0x3cd5bd50	0.026091248
225	0x3dcc4c48	0.09975487
226	0x3dd04220	0.10168862
227	0xbdb6a016	-0.08917253
228	0x3db40986	0.08790879
229	0xbde191c2	-0.11014129
230	0x3d3ee238	0.046602458
231	0x3dd0e912	0.10200705
232	0xbd5c3d24	-0.053769246
233	0xbd03b710	-0.032157004
234	0x3d79a59c	0.060948953
235	0x3d8cced0	0.06875384
236	0xbd165504	-0.03670217
237	0xbd099d4c	-0.033597276
238	0xbb644e80	-0.0034836829
239	0xbdf7e1a6	-0.12103586
240	0x3d9f6306	0.07782559
241	0x3dfdbe78	0.12389845
242	0x3d17a990	0.03702694
243	0xbdc45f9c	-0.095885485
244	0x3db065ca	0.08613165
245	0x3dd002e8	0.10156804
246	0xbd46f1d8	-0.048570484
247	0xbdfb15cc	-0.12260017
248	0xbc800b20	-0.015630305
249	0x3dd15aca	0.10222395
250	0x3dee409e	0.116334185
251	0xbddcc882	-0.10780431
252	0x3db3a298	0.08771247
253	0x3dde2cc6	0.108483836
254	0xbdb0e1ea	-0.0863684
255	0xbd9c7aa0	-0.07640576

bias f4 [32]
0	0xbdc5d818	-0.09660357
1	0xbce50218	-0.0279551
2	0xbd12fb74	-0.035884336
3	0xbdf30bb4	-0.118674666
4	0xbdae1802	-0.08500673
5	0x3dc7962a	0.097454384
6	0xbde3f6ee	-0.111310825
7	0xbdfd340a	-0.12363441
8	0x3dc26d18	0.09493464
9	0x3ddedf22	0.10882403
10	0x3d080510	0.033207953
11	0xbd8635e4	-0.065532476
12	0xbc84fd30	-0.01623401
13	0x3cace020	0.021102965
14	0x3dead3f2	0.114662066
15	0xbbdabfa0	-0.0066756755
16	0x3df0743a	0.117409185
17	0xbce143a8	-0.027498081
18	0xbd26ff1c	-0.040770635
19	0x3be6a2e0	0.007038459
20	0x3dfcfcda	0.12352915
21	0xbcfdaf30	-0.030967325
22	0x3cead970	0.028668135
23	0x3d8eac7a	0.06966491
24	0xbd668f50	-0.056289017
25	0xbdc0549a	-0.093911365
26	0x3dc5f320	0.09665513
27	0x3de0f348	0.10983902
28	0xbcc701a0	-0.024292767
29	0xbc9853e8	-0.018594697
30	0xbd8f3420	-0.06992364
31	0x3ce05fb8	0.027389392

weight f4 [1, 32]
0	0xbce7e8bb	-0.028309217
1	0xbcf482fe	-0.029847618
2	0xbdcaefc1	-0.09909011
3	0x3e08bc9a	0.13353196
4	0x3dceccd7	0.10097664
5	0xbe281194	-0.16412956
6	0x3d2cdea7	0.042204525
7	0x3bf10c80	0.0073562264
8	0xbe038da6	-0.12847003
9	0x3c763232	0.015026616
10	0xbe190ebf	-0.14947031
11	0x3e102e11	0.14080073
12	0x3d8b0120	0.06787324
13	0x3e1af1af	0.15131257
14	0xbe060d6b	-0.13091056
15	0x3e0ff56f	0.14058469
16	0xbe0365bd	-0.12831779
17	0x3e225073	0.15851001
18	0x3cfe45ff	0.031039236
19	0x3cd33e99	0.025786685
20	0x3d48fe3d	0.049070586
21	0x3d9bdf76	0.07610981
22	0x3d9cec26	0.07662229
23	0xbd9d64f4	-0.07685271
24	0xbe25de52	-0.1619809
25	0x3dfb1667	0.12260132
26	0x3e2bc5ce	0.16774675
27	0xbe246665	-0.16054685
28	0xbd86a744	-0.06574872
29	0x3dc57872	0.09642114
30	0xbd442dcb	-0.047895234
31	0x3e2f4d1a	0.17119256
