scripts/mlruns/0/models/m-e6100eb18d4343c2a82b698c29f611f8/artifacts/data/model.pth (torch, 17021 bytes, 5 tensors)

weight f4 [64, 4]
-0.06817305 -0.4652894 -0.280096 -0.21069843 -0.08535963 0.13725424 0.35806423 -0.3026386
-0.085565984 0.08077651 0.45498705 0.4110645 0.0057608485 0.35038406 -0.21163136 0.4750141
0.14479238 0.49974197 -0.101958394 -0.4052478 -0.46435732 0.13738477 0.437939 0.41756535
-0.026866913 -0.14045316 0.18852353 0.30512595 0.45170647 -0.034487963 0.095101 -0.4722771
0.0035757422 -0.46415496 0.3635922 0.20906103 0.017987907 0.17095369 -0.30843616 0.45091784
0.23470908 -0.44417882 0.38826865 0.20326596 -0.19001693 -0.40549362 0.48275703 -0.35404378
0.02880752 0.39158702 0.16821939 -0.19628394 0.21619058 0.27495348 0.091603875 -0.32546848
-0.15416378 0.20310116 0.4360128 -0.03261602 -0.14404958 -0.4220767 0.4208238 -0.16307598
0.056090057 0.37306684 -0.46099555 0.44519413 -0.24372256 -0.32521653 0.0031866431 0.021114945
-0.12866676 0.18018103 -0.060573876 -0.17740548 0.24628848 0.18373227 0.09305483 0.025670052
0.07074916 -0.07912254 0.4950043 -0.0143511295 0.05399704 -0.08238274 -0.11855751 -0.19774282
0.14804852 -0.24523443 0.013262033 -0.37162173 0.17339557 -0.44214737 0.466352 -0.21426684
0.104512095 0.3000037 -0.4795078 0.26317924 -0.41523635 0.056079507 -0.40649897 0.082476735
0.36582667 -0.1383102 0.1919645 0.14388937 -0.40078324 -0.36577117 -0.08757317 -0.21661419
0.13326734 -0.32223487 0.40437442 0.0028982759 0.29598027 0.05094433 0.25523776 0.068831444
0.43611592 0.3789137 0.36522144 0.23115766 0.1531716 0.044169426 0.29310274 -0.47097945
-0.25135827 0.24797982 0.49927843 0.4873194 0.4382668 0.11069715 -0.01839912 0.38572508
0.39216536 -0.4730292 0.23743296 0.0024889708 -0.37761396 -0.07495999 -0.4218052 0.17314684
0.30187362 -0.47377288 -0.033896565 -0.49489766 0.2865501 0.2523538 -0.20209551 -0.08217353
-0.16149211 0.4043026 -0.09967512 0.16772616 0.33675086 -0.2564845 0.29715037 -0.45311266
-0.28099775 -0.13693744 0.12864631 -0.38883853 0.108879745 0.031159222 -0.25189763 0.3444
0.14469886 -0.48222232 0.4045608 0.32420975 0.29938072 -0.14724964 0.35169262 -0.18286955
-0.038882792 -0.059164643 -0.41147554 -0.44527566 0.2708596 0.22798753 -0.35145026 0.09178716
-0.32223612 0.19632596 -0.18995225 -0.44028288 -0.33971953 0.05749178 -0.44331962 -0.2950502
0.11334151 -0.13739818 -0.4329654 0.0029438138 -0.43864506 -0.051796317 -0.1973837 0.47595978
0.45148945 0.25884575 0.28652525 -0.021282434 -0.15967238 -0.2929203 -0.44207317 -0.2682879
-0.39602542 0.08897239 -0.13539451 0.01929754 -0.20217192 -0.17846566 -0.31379604 -0.35309172
-0.05510509 0.057978332 -0.26418245 0.063866794 0.11606932 -0.39516264 0.26276362 0.11747795
-0.031522155 -0.15781766 0.48678005 -0.45272964 -0.30010748 0.4315061 -0.0993011 0.07759625
-0.023818672 -0.43813097 -0.0125924945 -0.17175263 -0.34149837 0.0047308803 0.48722202 0.37232506
0.3461057 0.011602223 -0.019398928 0.43104506 -0.20494777 0.4045573 0.14809275 0.26449937
0.38718903 -0.124351144 -0.029948413 -0.3006047 0.17647582 0.2429418 -0.057716668 0.2467978
00000000: 509e 8bbd 6a3a eebe be68 8fbe 54c1 57be
00000010: 08d1 aebd 608c 0c3e 3254 b73e 72f3 9abe
00000020: 383d afbd 286e a53d 10f4 e83e 0c77 d23e
00000030: 80c5 bc3b 8a65 b33e e4b5 58be 0c35 f33e
00000040: 7444 143e 2ede ff3e 90cf d0bd a47c cfbe
00000050: 3ec0 edbe 98ae 0c3e 8a39 e03e 20cb d53e
00000060: 0018 dcbc f4d2 0fbe 500c 413e 7839 9c3e
00000070: 1246 e73e 4043 0dbd 50c4 c23d 4ece f1be
00000080: 0057 6a3b b8a5 edbe c228 ba3e 1814 563e
00000090: 605b 933c 7c0e 2f3e 58eb 9dbe b4de e63e
000000a0: 9457 703e 686b e3be 26cb c63e f424 503e
000000b0: cc93 42be dc9c cfbe ee2b f73e 3a45 b5be
000000c0: c0fd eb3c 187e c83e b441 2c3e a8fe 48be
000000d0: 1061 5d3e b4c6 8c3e d09a bb3d cea3 a6be
000000e0: 1cdd 1dbe c0f9 4f3e 123d df3e 6098 05bd
000000f0: bc81 13be 701a d8be 3876 d73e 64fd 26be
00000100: b0be 653d 9e02 bf3e 9c07 ecbe 7cf0 e33e
00000110: 6892 79be c882 a6be 00d7 503b 40f9 ac3c
00000120: 38c1 03be 6081 383e 501c 78bd c8a9 35be
00000130: 0c33 7c3e 5024 3c3e 8893 be3d 004a d23c
00000140: f0e4 903d 000b a2bd 3471 fd3e 0021 6bbc
00000150: 002c 5d3d 48b8 a8bd 48ce f2bd 187d 4abe
00000160: 089a 173e bc1e 7bbe 0049 593c 3445 bebe
00000170: 9c8e 313e 2461 e2be b0c5 ee3e c468 5bbe
00000180: 700a d63d 169a 993e 0c82 f5be 6ebf 863e
00000190: dc99 d4be a0b3 653d a220 d0be 90e9 a83d
000001a0: a24d bb3e 30a1 0dbe 5892 443e bc57 133e
000001b0: 7633 cdbe 5c46 bbbe 9059 b3bd 1cd0 5dbe
000001c0: 3c77 083e f8fb a4be 2a0a cf3e 00f1 3d3b
000001d0: ba8a 973e 00ab 503d 86ae 823e 80f7 8c3d
000001e0: 964a df3e fa00 c23e 4efe ba3e 98b4 6c3e
000001f0: 04d9 1c3e 00eb 343d 9011 963e 3824 f1be
00000200: 08b2 80be 6cee 7d3e 6ca1 ff3e ee81 f93e
00000210: 8264 e03e 30b5 e23d c0b9 96bc c27d c53e
00000220: e6c9 c83e e230 f2be a021 733e 001e 233b
00000230: 9e56 c1be a084 99bd daf6 d7be 684d 313e
00000240: 2e8f 9a3e 5c92 f2be 20d7 0abd 3a63 fdbe
00000250: b2b6 923e 8434 813e 20f2 4ebe 984a a8bd
00000260: 305e 25be c000 cf3e 7822 ccbd 68c0 2b3e
00000270: 9c6a ac3e f051 83be 1824 983e 62fe e7be
00000280: f0de 8fbe 5439 0cbe dcbb 033e d815 c7be
00000290: 58fc de3d a041 ff3c baf8 80be 3255 b03e
000002a0: f02b 143e d8e5 f6be 9822 cf3e d2fe a53e
000002b0: 6e48 993e 9cc8 16be 0e11 b43e 2842 3bbe
000002c0: 9043 1fbd a056 72bd ecac d2be 2cfb e3be
000002d0: 1cae 8a3e 9075 693e 4af1 b3be e8fa bb3d
000002e0: 22fc a4be ac09 493e d882 42be c26c e1be
000002f0: b8ef adbe 807c 6b3d cafa e2be d210 97be
00000300: 981f e83d 1cb2 0cbe a4ad ddbe 00ed 403b
00000310: 1696 e0be 6028 54bd f41e 4abe 00b1 f33e
00000320: a029 e73e 6e87 843e 70b3 923e 8058 aebc
00000330: 2881 23be a6f9 95be 6a57 e2be 085d 89be
00000340: d8c3 cabe 2837 b63d dca4 0abe e015 9e3c
00000350: 2806 4fbe b4bf 36be e0a9 a0be 70c8 b4be
00000360: e0b5 61bd b07a 6d3d ec42 87be 98cc 823d
00000370: c0b5 ed3d c252 cabe f488 863e 4898 f03d
00000380: 601d 01bd f49a 21be 3c3b f93e 2ecc e7be
00000390: b0a7 99be 5eee dc3e 605e cbbd c8ea 9e3d
000003a0: 601f c3bc b452 e0be c050 4ebc ecdf 2fbe
000003b0: e0d8 aebe 8005 9b3b 2a75 f93e 64a1 be3e
000003c0: c434 b13e 4017 3e3c 80ea 9ebc f0b1 dc3e
000003d0: d4dd 51be 2222 cf3e a0a5 173e 766c 873e
000003e0: a43d c63e d0ab febd 6056 f5bc dce8 99be
000003f0: 14b6 343e bcc5 783e 5068 6cbd 90b8 7c3e

bias f4 [64]
-0.2932862 0.4894809 0.23912859 0.13458836 -0.38803035 0.029570043 -0.3847776 0.23399144
0.39298415 0.30660313 -0.015373051 0.4994123 -0.31894147 0.055419683 0.34422487 0.15092099
-0.27284187 0.22957581 -0.10362929 0.034139752 0.39915407 -0.3565023 0.1667493 -0.4535423
0.055028975 0.09988582 -0.111352265 -0.012103736 -0.07249415 0.04657209 0.25303602 -0.1025812
0.21773338 0.22053552 0.48823982 0.36121708 -0.098741174 -0.4639576 -0.12132913 0.07101679
0.15525705 0.25890422 0.1828199 0.15527278 -0.013402343 -0.031019986 -0.118211865 -0.44270146
0.45800227 -0.365241 0.3629874 -0.37066102 -0.2060504 0.43231058 -0.27231932 -0.39847457
-0.28304678 -0.116613686 0.1462673 -0.20045537 -0.1354307 0.049669623 -0.4940089 0.38488972
00000000: 9c29 96be 3e9d fa3e 20de 743e 88d1 093e
00000010: eaab c6be e03c f23c 9201 c5be 749b 6f3e
00000020: 3835 c93e 16fb 9c3e 40df 7bbc f8b2 ff3e
00000030: 4c4c a3be c0ff 623d 3e3e b03e 088b 1a3e
00000040: eeb1 8bbe ec15 6b3e 983b d4bd 20d6 0b3d
00000050: ec5d cc3e 7887 b6be 54c0 2a3e b236 e8be
00000060: 1066 613d f090 cc3d a80c e4bd c04e 46bc
00000070: d077 94bd 60c2 3e3d f08d 813e 1816 d2bd
00000080: 80f5 5e3e 10d4 613e 92fa f93e 72f1 b83e
00000090: d038 cabd da8b edbe 687b f8bd 4071 913d
000000a0: b4fb 1e3e 188f 843e 2435 3b3e d4ff 1e3e
000000b0: 8095 5bbc a01d febc 1019 f2bd c4a9 e2be
000000c0: 467f ea3e de00 bbbe 7cd9 b93e 48c7 bdbe
000000d0: e0fe 52be d057 dd3e 706d 8bbe dc04 ccbe
000000e0: 82eb 90be 28d3 eebd 18c7 153e 2c44 4dbe
000000f0: 58ae 0abe 6072 4b3d bcee fcbe 4410 c53e

weight f4 [32, 64]
0.10486932 -0.091375306 0.07483058 -0.08438034 -0.07891446 0.017550185 0.10391609 0.067480564
0.1020965 -0.09558168 0.042505935 0.06989823 -0.062671304 -0.008683071 -0.035917923 0.12484604
0.02256909 -0.05509083 0.0062231272 0.10571547 0.049106598 -0.03553307 -0.019835055 0.10768907
-0.056777835 0.021131441 -0.08283967 0.03287244 0.017650843 -0.031050563 0.050133973 0.11743103
-0.0056844503 0.06392732 0.02870898 0.08414309 -0.022958219 -0.026915446 0.050782844 0.012606189
0.015620783 -0.07234006 -0.10926244 -0.03603211 -0.10438967 -0.025199816 0.08700606 -0.010503605
-0.060194716 0.008207217 0.123736784 -0.026320145 0.0048164874 0.06093639 0.07579309 -0.02179858
-0.1139227 -0.1157365 0.093603015 0.0047002733 -0.029710054 0.10258259 -0.093951926 0.10383409
0.038031086 0.037091494 0.11943802 -0.10230997 0.08932097 -0.06447175 0.050692096 0.012029886
0.044184655 0.11417633 0.045749053 0.025427788 0.0018734336 0.107282534 0.079333186 -0.021154389
-0.0686751 -0.037672743 -0.11401132 0.0039094687 0.034324273 -0.09570299 0.12293807 -0.031200767
-0.07622592 -0.066724166 0.093770325 0.09430857 0.023022309 0.053388447 -0.094465986 -0.11509046
-0.014371023 -0.034622878 0.10198316 0.113829955 -0.07434137 0.096819386 0.09911241 0.03966181
0.11780226 -0.038835585 0.09767844 -0.09723915 0.057253703 -0.06395617 0.10570116 0.047092482
-0.03314714 0.08287272 0.0023171753 -0.024532542 -0.092612356 -0.080049515 0.07996476 0.012305498
-0.1055228 -0.085237056 0.07304755 -0.016971454 -0.04230395 0.06261164 -0.10432339 -0.10783559
0.030699447 0.059930563 -0.021971554 -0.09954606 -0.029449925 -0.042295635 0.01579544 0.10806209
0.04033515 0.004446894 -0.014069796 0.040363476 -0.11365546 0.018152177 0.04594347 0.025332749
0.040582106 -0.03533694 -0.053919807 -0.0879025 -0.0071199387 -0.042924017 -0.08617416 -0.08392666
-0.084773555 -0.12198599 -0.06341323 0.06493883 0.038172424 -0.011121482 -0.11092664 -0.07425961
0.09878944 0.018668622 0.041670784 0.07751976 0.09451009 0.118744776 0.087355345 -0.022078231
0.040864035 -0.03202206 -0.0067655444 -0.0353864 0.0876769 -0.040734127 0.06774168 0.059850946
0.015661225 -0.010125145 -0.05008757 0.027449697 0.10104929 -0.022486642 -0.09153986 -0.097752646
0.08045629 -0.0048671216 0.049807504 -0.013185546 -0.06135598 0.0018346012 -0.0041856617 0.004012093
-0.06505981 -0.112684324 -0.100701496 0.11429015 -0.061165318 -0.054161772 -0.11630198 -0.037781432
0.08708005 0.008737072 -0.0996034 -0.10571124 0.11814694 0.11283696 0.0101516545 -0.0066215843
-0.112568244 -0.09395148 -0.07147388 -0.018660918 -0.023495764 -0.04446417 0.01924403 -0.014254674
-0.063912034 -0.03716734 0.09098871 -0.011693016 0.093448356 0.10199253 0.092286974 0.12112425
-0.08933899 0.10680084 0.020015568 -0.005109906 0.08820613 -0.08388671 0.012130395 0.018085718
-0.02943921 -0.054210052 -0.10685882 0.010205582 0.10641411 -0.02047123 -0.1054081 -0.12039055
0.09017359 -0.11600037 0.10121499 0.054317236 0.045148328 0.019198015 -0.009378716 -0.08626096
0.110818654 0.062874705 -0.09056473 0.03179398 0.049129665 0.096137375 -0.058151618 -0.048544526
00000000: bac5 d63d fa22 bbbd c640 993d 9acf acbd
00000010: e89d a1bd 68c5 8f3c f6d1 d43d 4033 8a3d
00000020: f817 d13d 54c0 c3bd b41a 2e3d ce26 8f3d
00000030: d059 80bd 7043 0ebc ac1e 13bd 48af ff3d
00000040: d0e2 b83c eca6 61bd 60eb cb3b 5a81 d83d
00000050: 0024 493d 208b 11bd 207d a2bc 168c dc3d
00000060: e08f 68bd d81b ad3c d8a7 a9bd 40a5 063d
00000070: 8098 903c c05d febc 4859 4d3d ae7f f03d
00000080: a044 babb 54ec 823d 182f eb3c 3653 ac3d
00000090: e012 bcbc c87d dcbc ac01 503d 308a 4e3c
000000a0: 50ee 7f3c 0627 94bd fcc4 dfbd 6896 13bd
000000b0: 40ca d5bd d86f cebc 3c30 b23d 5017 2cbc
000000c0: bc8e 76bd 9077 063c b669 fd3d 589d d7bc
000000d0: a0d3 9d3b 7098 793d 6839 9b3d f092 b2bc
000000e0: 4e50 e9bd 4207 edbd f0b2 bf3d c004 9a3b
000000f0: 8062 f3bc d216 d23d de69 c0bd f8a6 d43d
00000100: 7cc6 1b3d 40ed 173d ec9b f43d e487 d1bd
00000110: eaed b63d c409 84bd 84a2 4f3d 0019 453c
00000120: f8fa 343d 48d5 e93d 5c63 3b3d f04d d03c
00000130: 008e f53a f2b6 db3d 7079 a23d f84b adbc
00000140: 88a5 8cbd bc4e 1abd c47e e9bd 001b 803b
00000150: 9c97 0c3d eeff c3bd f4c6 fb3d c098 ffbc
00000160: 561c 9cbd aea6 88bd a80a c03d da24 c13d
00000170: 4899 bc3c d8ad 5a3d 6277 c1bd 8cb4 ebbd
00000180: 7074 6bbc b8d0 0dbd 8cdc d03d ae1f e93d
00000190: 4a40 98bd 3e49 c63d 72fb ca3d 6c74 223d
000001a0: 5042 f13d 1012 1fbd a20b c83d 5225 c7bd
000001b0: dc82 6a3d 74fb 82bd da79 d83d 0ce4 403d
000001c0: 4cc5 07bd 2cb9 a93d c0db 173b 78f8 c8bc
000001d0: 8cab bdbd 00f1 a3bd 90c4 a33d 009d 493c
000001e0: 561c d8bd c490 aebd f499 953d b807 8bbc
000001f0: e846 2dbd 883a 803d 80a7 d5bd e8d8 dcbd
00000200: 687d fb3c c079 753d b0fd b3bc cede cbbd
00000210: f840 f1bc 303e 2dbd 7065 813c a84f dd3d
00000220: 7836 253d 40b7 913b 0085 66bc 2c54 253d
00000230: 32c4 e8bd e0b3 943c 382f 3c3d a086 cf3c
00000240: 6c39 263d 78bd 10bd 04db 5cbd 3a06 b4bd
00000250: 604e e9bb 18d1 2fbd 147c b0bd bee1 abbd
00000260: c29d adbd cad3 f9bd ccde 81bd a6fe 843d
00000270: b05a 1c3d e036 36bc 822d e3bd 6c15 98bd
00000280: 1e52 ca3d f0ee 983c fcae 2a3d aec2 9e3d
00000290: 828e c13d 7630 f33d 5ce7 b23d 68dd b4bc
000002a0: 0c61 273d 9029 03bd 80b1 ddbb 54f1 10bd
000002b0: f28f b33d d4d8 26bd 26bc 8a3d 4426 753d
000002c0: f84b 803c f0e3 25bc a028 4dbd 30de e03c
000002d0: eef2 ce3d e835 b8bc 4079 bbbd 8a32 c8bd
000002e0: 44c6 a43d 607c 9fbb f402 4c3d 3008 58bc
000002f0: 6850 7bbd 0077 f03a e027 89bb e077 833b
00000300: 143e 85bd 0ac7 e6bd 963c cebd f410 ea3d
00000310: 7c88 7abd bcd8 5dbd bc2f eebd b4c0 1abd
00000320: 0657 b23d f025 0f3c defc cbbd 227f d8bd
00000330: 06f7 f13d 1017 e73d 2053 263c e0f9 d8bb
00000340: 2e8a e6bd a269 c0bd e660 92bd c8de 98bc
00000350: 307a c0bc 1020 36bd a8a5 9d3c 708c 69bc
00000360: 50e4 82bd c83c 18bd 4a58 ba3d 1094 3fbc
00000370: da61 bf3d 76e1 d03d f400 bd3d fe0f f83d
00000380: 5cf7 b6bd 66ba da3d b0f7 a33c 0071 a7bb
00000390: 6aa5 b43d cccc abbd 90be 463c 8028 943c
000003a0: 802a f1bc 5c0b 5ebd ccd8 dabd 5035 273c
000003b0: a4ef d93d 48b3 a7bc 34e0 d7bd 528f f6bd
000003c0: eeac b83d 9a91 edbd ce49 cf3d c07b 5e3d
000003d0: 74ed 383d 2845 9d3c 30a9 19bc 96a9 b0bd
000003e0: e4f4 e23d 74c4 803d 007a b9bd 683a 023d
000003f0: 303c 493d ace3 c43d 6430 6ebd a0d6 46bd

bias f4 [32]
0.031063378 -0.0530262 -0.11370528 -0.038279682 -0.11009854 -0.09623608 -0.040856913 -0.11897816
-0.089944765 0.09683609 -0.09536922 -0.05987662 0.00893347 0.11192973 -0.06924173 -0.06646523
0.013751894 -0.113097385 -0.048064798 0.06891328 -0.10037577 -0.024768487 0.013500527 0.073872566
0.024761483 0.11430204 0.121344134 -0.071348324 0.008374035 0.11015189 0.08466567 -0.094502464
00000000: a078 fe3c 0032 59bd 50de e8bd 28cb 1cbd
00000010: 587b e1bd 6c17 c5bd 9459 27bd d2aa f3bd
00000020: f634 b8bd 0052 c63d f050 c3bd 3041 75bd
00000030: b05d 123c 6a3b e53d 9cce 8dbd ec1e 88bd
00000040: a04f 613c 9a9f e7bd 98df 44bd 6822 8d3d
00000050: d091 cdbd 48e7 cabc 5031 5d3c 804a 973d
00000060: 98d8 ca3c 3017 ea3d 4683 f83d 121f 92bd
00000070: 4033 093c 5097 e13d 3265 ad3d 828a c1bd

weight f4 [1, 32]
-0.16044334 -0.03915501 -0.11865992 -0.12107156 0.12765867 0.08975449 -0.16718352 0.06522054
-0.0066284346 0.0460437 0.10071548 -0.066909194 0.0015020083 -0.11443746 -0.04997885 -0.06603128
0.13874543 0.14627089 0.14035586 -0.12020538 -0.14918979 -0.11005655 0.084103085 -0.024697041
-0.06068748 0.085653335 -0.17145543 -0.1206019 -0.043006916 0.08678335 -0.09261136 -0.1725457
00000000: 424b 24be 0161 20bd f903 f3bd 5ef4 f7bd
00000010: f4b8 023e 34d1 b73d 2832 2bbe 5992 853d
00000020: 5733 d9bb 5298 3c3d eb43 ce3d b007 89bd
00000030: 09df c43a 305e eabd 9fb6 4cbd 683b 87bd
00000040: 4813 0e3e 09c8 153e 72b9 0f3e 3d2e f6bd
00000050: 35c5 18be 5465 e1bd 3d3e ac3d 7351 cabc
00000060: 6f93 78bd 046b af3d 0392 2fbe 21fe f6bd
00000070: 0528 30bd 78bb b13d 06ab bdbd d2af 30be
