scripts/mlruns/1/models/m-ffbfc6b0f58740599b466eb4344ac536/artifacts/data/model.pth (torch, 17021 bytes, 5 tensors)

weight f4 [64, 4]
000000 20 7f 58 be be 55 c9 be ce ca fc 3e 70 a0 5f bd
       -0.21142244 -0.3932323 0.49373478 -0.054596364
000010 bc 3a 59 be 60 e7 05 3e d8 e4 f5 3d e0 42 68 3d
       -0.21213812 0.13076544 0.12006539 0.056704402
000020 2e 8e b2 be 98 22 d0 be a4 da 7e be f0 35 88 bd
       -0.348741 -0.40651393 -0.24888092 -0.06650913
000030 3c 1f 9e be 70 44 df 3e b8 81 54 3e 96 ed 8f be
       -0.30883205 0.436069 0.20752609 -0.2811095
000040 20 e2 d4 3d 80 8c 5c 3c 86 52 fc be e8 2f e9 3e
       0.103946924 0.013461232 -0.4928171 0.45544362
000050 80 6f fd bb 7c 5c 49 3e 5c 03 f6 be b0 e9 60 3d
       -0.007734239 0.19664186 -0.48049438 0.05491036
000060 c0 28 1c 3c 38 00 92 be 00 00 26 ba 24 91 13 be
       0.0095312 -0.28515792 -0.00063323975 -0.14410836
000070 a8 8f 8a 3e bc 39 11 be 4c 7d 88 3e 7a 60 86 3e
       0.27062726 -0.1418218 0.26658094 0.2624548
000080 26 eb ee 3e ec 48 ef 3e 42 41 a9 be cc 28 e5 be
       0.4666378 0.46735322 -0.330576 -0.44757688
000090 18 85 c5 3d 30 b3 61 3d c8 6d b2 3d ac 4b d3 3e
       0.09644526 0.055102527 0.08712345 0.4126867
0000a0 f4 2a 21 be 18 03 87 be 00 e9 0f bc f8 0a 68 3e
       -0.15739042 -0.26369548 -0.008783579 0.22660434
0000b0 5c 85 c9 be c4 29 41 be 64 78 cf 3e 1c 39 2d 3e
       -0.39359558 -0.18863589 0.40521538 0.16916317
0000c0 64 f3 08 be dc 29 13 be 00 06 c1 3d 20 4b 35 bd
       -0.13374096 -0.14371437 0.094249725 -0.044261098
0000d0 c2 0d fe be 54 ef 81 3e 8c 69 0c 3e d0 5b b1 3d
       -0.4961987 0.25377905 0.13712138 0.0866009
0000e0 64 a8 5f be fe a0 86 3e 00 99 01 be d0 94 9a 3d
       -0.2184158 0.26294702 -0.12656021 0.07547915
0000f0 8a b9 c3 be 18 54 c1 3e b8 60 e5 bd de fc cc be
       -0.38227493 0.3775947 -0.11200088 -0.40036672
000100 a4 3a 6c be 04 37 74 be d8 75 93 be d8 10 98 3e
       -0.23069245 -0.23849112 -0.28800845 0.2970035
000110 24 b0 c7 be 58 2c 98 bd bc 23 f0 3e e0 c8 2a 3e
       -0.39001572 -0.07430333 0.46902263 0.1667819
000120 2c 9e ec be 90 dd 29 bd 26 68 b8 3e 3a 8c d6 3e
       -0.46214426 -0.041471064 0.3601696 0.4190386
000130 7a a5 93 3e 0c 5f 08 3e b0 c9 38 3e 76 7c 80 3e
       0.28837186 0.13317508 0.18045688 0.25094956
000140 6c c9 a3 3e 28 9f ae be b8 26 cf bd 3e 8e f5 3e
       0.3198961 -0.34105802 -0.10114807 0.47960085
000150 70 3d 33 3e f2 48 da be 10 7d 62 bd 68 b4 33 be
       0.17503905 -0.42633778 -0.05529505 -0.17549288
000160 d0 5b c8 3d 40 d4 93 be 42 10 b7 be e0 cc a2 3d
       0.09783137 -0.2887287 -0.3575459 0.07949233
000170 a8 89 25 3e 90 d4 3c 3e b0 6c cb bd 50 fc 8a 3e
       0.16165793 0.18440461 -0.0993284 0.27145624
000180 f0 6b 1f be 1c da c8 be d4 9a ad 3e 60 a6 e4 3e
       -0.15568519 -0.39228904 0.33907187 0.44658184
000190 c8 09 91 be cc f2 60 3e e0 86 da be 18 38 a8 bd
       -0.28327775 0.2196762 -0.42681026 -0.08213824
0001a0 60 0c 52 bd ec 55 02 3e be 55 ab 3e 5e 07 ce 3e
       -0.051281333 0.12728089 0.33463854 0.40239996
0001b0 c0 e4 9c 3d 6c 2e 2e 3e 5c 29 10 3e fc c7 46 be
       0.07660818 0.17009896 0.14078277 -0.19412225
0001c0 02 0c e1 3e 46 8d 93 3e 14 c1 85 be bc 34 ef be
       0.43954474 0.2881872 -0.2612387 -0.4671992
0001d0 c0 29 f9 bc 78 90 05 3e 80 10 b0 3c 4e b1 82 3e
       -0.030415416 0.13043392 0.021492243 0.25525898
0001e0 58 0b e9 be 58 3e d7 3d 32 a8 a0 3e ea ce 8c 3e
       -0.45516467 0.10509938 0.31378323 0.27501613
0001f0 94 60 87 3e d0 70 1e be 30 d3 07 be f4 b0 7e be
       0.2644087 -0.15472722 -0.13264155 -0.2487219
000200 6c 4b 39 3e c0 e1 b1 3e 00 4b 3a 3c c4 b9 39 3e
       0.18095177 0.34742546 0.01137042 0.1813727
000210 00 3c 07 be 84 b9 ed 3e bc 21 83 be c6 d8 98 be
       -0.13206482 0.464306 -0.25611675 -0.29852885
000220 a8 7b b1 3e e0 cf a5 3e 7c af d8 3e ac f6 26 be
       0.34664655 0.3238516 0.42321384 -0.16305035
000230 ec a3 24 be b0 17 5b 3e aa f2 d2 be 5c 21 48 be
       -0.16078156 0.21395755 -0.41200763 -0.19543976
000240 fc bc e6 3e 8c 88 31 3e 70 63 97 3e a8 82 e2 3d
       0.4506606 0.17337245 0.29568052 0.11060077
000250 20 27 cc bd a8 67 c2 3e 2e bc b1 be 3c d6 16 3e
       -0.099684 0.37969708 -0.34713882 0.14730161
000260 fc 45 b5 be fe 96 f9 3e 02 08 9a be 40 13 56 3c
       -0.35404956 0.4874801 -0.30084234 0.013066113
000270 d0 a0 2a 3e 6a 63 dc 3e 40 15 74 3d ec bb 7c be
       0.16662908 0.43044597 0.059590578 -0.24681062
000280 ee 29 a8 3e 18 39 98 be 48 d5 5e be 70 09 33 bd
       0.3284449 -0.2973106 -0.21761048 -0.043710172
000290 f2 9b ba 3e 8c f4 eb 3e 68 30 0d be e2 b3 a1 be
       0.36447102 0.46085012 -0.13787997 -0.31582552
0002a0 f4 b0 6b 3e 28 b9 9d bd c0 88 37 bd 1a b4 94 3e
       0.23016721 -0.077013314 -0.04480815 0.29043657
0002b0 8c 41 fa be de 0d 81 be 18 b6 0e 3e 18 eb b0 bd
       -0.48878133 -0.25205892 0.13936651 -0.086385906
0002c0 5c bf ab 3e c0 9d 3c bc 80 e4 5c be e4 85 4e be
       0.33544433 -0.01151222 -0.21571541 -0.20168263
0002d0 00 6a 47 3c 68 d5 f5 3d 90 b4 ac 3d 40 d3 f4 bd
       0.012171268 0.12003595 0.08432877 -0.11954355
0002e0 80 cb f8 3d 3c 9d f8 3e e0 0b 93 3c 4e ee 8e be
       0.121481895 0.4855746 0.017949998 -0.27916187
0002f0 ac 91 2b be 26 e9 e0 be 30 12 2d 3e b4 ca 6b 3e
       -0.16754788 -0.43927878 0.16901469 0.23026544
000300 d8 b8 e0 3e 40 68 89 3d 24 b9 da 3e f8 52 51 be
       0.43891025 0.06709337 0.42719376 -0.20441806
000310 8e 59 c1 be 2a 9e b4 3e 68 7c 30 3e 44 46 ea 3e
       -0.37763637 0.3527692 0.17234957 0.45756733
000320 7c 65 99 be 68 28 88 be 14 35 eb 3e cc fc fb be
       -0.2996024 -0.26593328 0.45938933 -0.49216306
000330 78 cf 9d be c0 65 7b 3e 40 81 53 3c f4 12 2b 3e
       -0.3082235 0.24550533 0.012909234 0.16706449
000340 d0 0f d0 bd 22 b9 fe 3e 24 dd e1 be 14 43 c5 be
       -0.10159266 0.4975062 -0.4411403 -0.3852774
000350 38 2d 8d be b8 5d a9 3d 76 fb 88 be 7c 47 e1 be
       -0.27573562 0.082698286 -0.2675435 -0.4399985
000360 60 3f d8 3d 50 01 a1 bd c0 b7 2e be 40 e1 7c 3c
       0.10558963 -0.078615785 -0.17062283 0.015434563
000370 d6 07 d9 3e 70 b8 89 bd 8e c5 c2 be 84 69 1c 3e
       0.4238879 -0.06724632 -0.38041347 0.15274626
000380 e0 a6 e6 3c 40 e9 96 3c 1c 5b 39 be b8 c6 71 be
       0.028155744 0.01842177 -0.18101162 -0.23610961
000390 8a d7 d5 3e 70 71 31 3e e4 46 4c be 58 02 f2 be
       0.41766006 0.17328429 -0.19948918 -0.47267413
0003a0 f8 f0 2d be 64 d0 7a 3e 88 87 a2 3d 98 a6 98 bd
       -0.16986454 0.24493557 0.07936007 -0.0745365
0003b0 90 69 14 3d 40 a8 aa bc 02 7a 8b be 1a 03 95 be
       0.036233485 -0.020832181 -0.27241522 -0.2910393
0003c0 e0 3d a5 3d ac fd 77 be c8 d6 5f be 48 4f ec 3d
       0.08068442 -0.24217862 -0.21859276 0.11538559
0003d0 38 99 c0 3e c8 0e fc 3d 0c 16 c2 be d8 47 de 3d
       0.37616897 0.12307507 -0.37907445 0.10853547
0003e0 48 53 4f 3e 90 df ac bd ca a6 f8 3e ac e9 e1 be
       0.20246613 -0.08441079 0.4856475 -0.4412359
0003f0 28 ad f2 3d 00 5b 78 bb 84 d6 f7 3e e0 7e 60 bd
       0.11849433 -0.0037896037 0.4840585 -0.054808497

bias f4 [64]
000000 f8 e6 b9 3d a8 35 e2 3e d0 32 8f bd 44 76 be be
       0.09077257 0.4418156 -0.069921136 -0.37199605
000010 e4 5d 21 be 78 9b aa 3d b0 20 fb be 50 25 57 be
       -0.15758473 0.083304346 -0.49048376 -0.21010327
000020 d8 9a 80 3e f0 dd 7d 3d 02 b9 f9 be 68 5a c9 3d
       0.25118136 0.061979234 -0.48773962 0.09831697
000030 96 34 ff 3e e8 82 b5 bd 42 a1 a1 be b0 05 26 3d
       0.49844807 -0.08862859 -0.31568342 0.040532768
000040 d2 a8 ce be 1c 8c 0f be 54 b4 b6 be b4 0f 5c be
       -0.40363175 -0.14018291 -0.35684454 -0.21490365
000050 a0 0a 78 be 0e 78 88 be d0 7e 90 3d f4 b1 ac 3e
       -0.24222803 -0.26654094 0.070554376 0.33729517
000060 b0 e1 2a 3e a4 e5 d4 3e f8 60 46 3e 48 e5 5e 3e
       0.16687655 0.41581452 0.19372928 0.21767151
000070 f4 77 18 3e 50 af 6c 3d 08 93 e8 3d 26 b5 d8 be
       0.14889508 0.05778438 0.11356169 -0.42325705
000080 8c b1 5e 3e e8 55 b1 3e e8 da c1 be 08 b2 92 3e
       0.21747416 0.34635854 -0.37862325 0.28651452
000090 12 28 9e 3e f0 62 cf be 90 53 05 3d 3e 35 e6 be
       0.30889946 -0.4050517 0.032550395 -0.44962496
0000a0 1c dc 1f 3e e0 e6 e6 be 90 8b a5 bd a0 db e3 bc
       0.15611309 -0.4509802 -0.0808326 -0.027814686
0000b0 d8 87 4d 3e 90 53 55 be 20 5f 5c be 7a 7a c9 3e
       0.20071352 -0.20832658 -0.21520662 0.39351255
0000c0 b0 bf 66 3d c0 0f 5d 3c 5a 5d dd 3e e0 58 36 bd
       0.05633515 0.013492525 0.43235284 -0.04451835
0000d0 58 09 ac bd 1c 73 5f 3e 68 38 d2 be 30 e2 be 3d
       -0.0840022 0.21821254 -0.4105866 0.093204856
0000e0 2e a2 8d 3e b6 9d c0 be 08 5f b1 bd a8 f5 0b 3e
       0.27662796 -0.37620324 -0.08660704 0.13667929
0000f0 a8 41 88 be fc e1 1a be e0 ef ba bc 72 2d 90 be
       -0.26612592 -0.15125269 -0.02281946 -0.28159672

weight f4 [32, 64]
000000 20 a6 b0 bd 24 17 6f bd 18 bd 3d 3d 34 84 9b bd
       -0.08625436 -0.058371678 0.046322912 -0.07593575
000010 7c 1c 8d bd 4a 3b 93 bd 04 a8 a1 3d 9e c3 e4 bd
       -0.068901986 -0.07189043 0.078933746 -0.111701235
000020 f0 b2 5b bc 50 98 3a bd c0 46 00 bc 02 02 8e 3d
       -0.013409361 -0.045555413 -0.007829368 0.06933977
000030 e4 9f e2 3d c0 f8 57 3c e8 84 bb 3d 16 3c f7 3d
       0.11065653 0.013181865 0.09156209 0.12072007
000040 36 a9 a2 3d 90 a6 8e bd 4a 1e d7 3d 90 30 ec bc
       0.07942431 -0.06965363 0.10503824 -0.02883175
000050 36 73 d8 3d dc d4 01 3d d2 be 9c 3d 3e d3 ea 3d
       0.1056885 0.03169714 0.076535836 0.114660725
000060 10 39 9f 3d 90 60 af 3c 20 64 02 bc 5c d1 fc 3d
       0.07774556 0.02140835 -0.007958442 0.1234462
000070 96 69 c8 bd b4 fb 8b 3d 40 9d a1 3c 2c 98 ef bd
       -0.09785764 0.06835118 0.019728303 -0.11698946
000080 9e 92 fc 3d 54 bd 04 3d c4 85 d6 3d 10 51 bb bd
       0.123326525 0.03240712 0.104747325 -0.09146321
000090 ba 33 e3 bd 60 f0 ba 3c 56 37 a6 3d 84 26 ed 3d
       -0.110938504 0.022819698 0.08116023 0.11579612
0000a0 38 2f e6 3c 70 56 ff bc 1c 88 62 bd 40 71 c0 3d
       0.028098688 -0.031169146 -0.055305585 0.09396601
0000b0 c0 63 9c bd 68 92 86 bc 88 19 30 bd 22 07 b2 3d
       -0.07636213 -0.016427234 -0.0429931 0.08692767
0000c0 c0 cc f9 3d e2 06 ed bd 10 55 dd bd 6e 69 a9 3d
       0.12197256 -0.115735784 -0.1080724 0.08272062
0000d0 40 72 5a bb c0 fd 8d bc 72 9a fd bd c4 8c ed 3d
       -0.0033332258 -0.017332911 -0.12382974 0.115991145
0000e0 d0 5e 78 bc 2c 3a 27 bd 38 98 07 bd d4 8b d0 3d
       -0.015159324 -0.04082696 -0.03310415 0.1018292
0000f0 c2 d1 ae bd e6 44 fd bd 0e 54 b7 3d ca ec d9 3d
       -0.08536102 -0.12366657 0.08951579 0.10640867
000100 22 21 d7 bd 26 a5 91 bd 3a c4 80 bd a2 31 ed 3d
       -0.105043665 -0.07111578 -0.06287427 0.11581732
000110 34 31 7d bd fc af 3f 3d d6 fe d0 3d 58 83 85 3c
       -0.061814502 0.04679869 0.10204856 0.016297981
000120 18 11 84 3c 60 a7 4e bd 98 4b 42 bd 6c bf 85 bd
       0.016121432 -0.05045259 -0.047435373 -0.065306515
000130 b0 39 ed bc 2e 3f bf bd e0 82 ee 3b 74 e8 ea bd
       -0.028958172 -0.093382224 0.007278785 -0.11470118
000140 50 89 4f bd 40 b7 96 bb e8 1b 87 bc f0 e1 ed 3c
       -0.05066806 -0.004599482 -0.016492799 0.0290384
000150 72 a2 de bd f2 b2 af 3d d6 71 90 3d 70 d6 46 3c
       -0.10870828 0.08579053 0.070529625 0.012136087
000160 6e 9b d7 3d 60 a8 10 bd 00 10 2c 3d ee be f9 bd
       0.10527693 -0.035316825 0.042007446 -0.1219462
000170 60 d3 cf bc 0e 3e a0 bd 7e 85 98 bd 00 80 ea b9
       -0.025369346 -0.07824336 -0.074473366 -0.00044727325
000180 90 d8 6c bc d6 60 a0 3d 60 82 be bc 90 83 e6 3d
       -0.014455929 0.0783097 -0.023255527 0.11255562
000190 58 c9 26 3d 88 b9 cd 3c b8 e1 e2 3c f2 a6 c9 3d
       0.04071936 0.025112882 0.027695522 0.098462954
0001a0 28 eb ca 3d 78 83 84 3c 7c c9 2f 3d ac b3 a8 bd
       0.09908134 0.01617597 0.04291676 -0.08237395
0001b0 3c 2c 58 bd cc 87 9a bd 76 9f f3 3d 20 87 48 3d
       -0.05277656 -0.075454324 0.11895649 0.04895699
0001c0 ba 53 f1 3d ac 30 1a 3d 0e 5d b0 bd 0e cb d7 bd
       0.11783548 0.037644073 -0.08611499 -0.105367765
0001d0 00 be e8 3c 58 0a 8f 3c 80 88 dc 3b 70 c8 c6 bc
       0.028410912 0.017460987 0.0067301393 -0.024265498
0001e0 e4 4b 4d bd 3c 64 95 3d 20 a3 6d bc f0 46 10 3d
       -0.050121203 0.07294509 -0.014504224 0.0352239
0001f0 a4 d6 b3 bd 30 0b 3b 3c b0 29 6e bd 18 4d 7c bd
       -0.08781174 0.0114162415 -0.058145225 -0.06159696
000200 8c d0 31 3d 58 aa 9f 3c 7c bc 73 bd 68 ab de bd
       0.043411776 0.019490406 -0.059505925 -0.10872537
000210 94 77 7b 3d 98 c6 c8 3d 34 9b a4 bd 18 1a f5 3c
       0.061393335 0.09803504 -0.08037415 0.029919669
000220 c0 07 3a 3b e8 53 ca 3c a2 dc ae bd 60 60 db bc
       0.0028385967 0.024698213 -0.08538176 -0.026779354
000230 60 a2 af bc 84 d7 b8 3d 58 6e 2f bd e0 0f c0 bd
       -0.021439731 0.09025481 -0.04282984 -0.09378028
000240 18 7c ec bc 2a 18 b3 3d c4 e3 5a 3d 3c 8e 21 bd
       -0.028867766 0.08744843 0.05343987 -0.039442286
000250 b8 d4 67 bd 28 c6 c4 bd 60 5c fb 3c b4 18 02 3d
       -0.05659935 -0.09608108 0.030683696 0.03176184
000260 f6 4c 9f bd 10 bb a3 bc 12 fb dc bd 4e cc ad bd
       -0.07778351 -0.01998666 -0.10790075 -0.08486234
000270 ba 51 97 3d 60 d7 6b bc 40 b4 21 3c c0 35 7d bb
       0.07388635 -0.014394611 0.009869635 -0.0038636774
000280 c0 79 ca 3c 20 d7 7e bc 06 c2 a4 3d 76 1b ac bd
       0.024716258 -0.0155542195 0.080448195 -0.08403675
000290 72 21 99 3d 58 12 e3 3d 94 30 fa 3d 68 ef 52 bd
       0.07477082 0.11087483 0.12216297 -0.051497847
0002a0 b8 0d ff bc 82 dd a9 bd 40 76 f0 3c aa 1b 99 bd
       -0.031134471 -0.082942024 0.029353261 -0.074759796
0002b0 80 6c 5e 3d dc 55 e8 bd e4 b0 2d bd 12 13 a3 bd
       0.054302692 -0.113445014 -0.042405024 -0.07962622
0002c0 60 95 5f 3c 96 70 c4 bd e6 39 ea 3d 9c aa b2 3d
       0.013646454 -0.095917866 0.114368245 0.087239474
0002d0 28 6d 4c bd 08 9b 73 bd 00 f8 be 38 5c 4b a3 bd
       -0.049908787 -0.05947402 9.1060996e-05 -0.07973358
0002e0 c6 e6 d5 bd 88 78 53 bd 40 9a 75 3c ae 44 b3 3d
       -0.10444407 -0.05162862 0.014990389 0.08753334
0002f0 b4 a0 53 3d 08 b8 e1 bd e6 ea ad 3d 9e e8 f4 bd
       0.05166693 -0.11021429 0.08492069 -0.11958431
000300 34 e1 53 bd f8 f1 1a bd c8 5f 9e 3c 06 8f fd 3d
       -0.051728442 -0.037828416 0.019332781 0.12380795
000310 a6 8b b8 bd 40 bc 39 3d 22 ba dd 3d 00 a4 f0 3c
       -0.09011011 0.045345545 0.10826518 0.029375076
000320 cc 7b ba 3d 80 b8 87 bd 00 34 88 bd 90 67 da bd
       0.09105644 -0.066269875 -0.06650543 -0.10664284
000330 60 37 f9 bb a4 f6 d8 3d b0 03 6a 3c b0 01 5e 3d
       -0.007605478 0.10593918 0.014283106 0.054200828
000340 48 78 d8 bc b0 76 0b 3c ae 9a d1 bd 38 ee 71 bd
       -0.026424542 0.008512184 -0.10234581 -0.059065074
000350 34 c6 c1 3d 60 54 e8 bb 58 2d 52 bd ce e6 95 3d
       0.09461632 -0.0070901364 -0.051312774 0.07319413
000360 7e 69 b0 bd e0 62 c1 3d 4c 67 47 bd b0 f9 d3 bd
       -0.08613871 0.09442687 -0.048682496 -0.103503585
000370 be 60 f2 3d c0 f1 51 3d 48 c9 ea bc a0 d0 87 bd
       0.11834858 0.05125594 -0.028660432 -0.06631589
000380 bc 94 32 bd b8 e4 5f bd 8a c1 c1 bd 56 ff a8 3d
       -0.043598875 -0.054661483 -0.09460743 0.082518265
000390 18 32 cf bd 3c ac 12 bd be e6 e2 3d c8 d0 ae 3c
       -0.101169765 -0.035808787 0.11079167 0.021339789
0003a0 d8 e4 ec bd f4 bc 2b bd ae 5c d3 bd 1e a5 a1 3d
       -0.11567086 -0.041928247 -0.103204116 0.07892822
0003b0 94 79 62 3d 46 89 b6 bd 18 33 d5 bd b0 75 12 3c
       0.055291727 -0.089129016 -0.10410136 0.008939192
0003c0 28 97 72 3d 28 70 27 bd 44 4e 2c 3d d0 89 7a bc
       0.059226185 -0.040878445 0.042066827 -0.015291646
0003d0 04 cb f9 bd 3a 40 e1 bd 70 b1 46 bd 60 65 24 bd
       -0.12196925 -0.10998578 -0.04850906 -0.04013574
0003e0 70 f5 2d 3d 58 2a 94 bd d6 2e c4 bd a0 69 88 bb
       0.042470396 -0.07234639 -0.09579246 -0.004162982
0003f0 b8 97 1e 3d 30 b4 13 3d b0 37 95 3c 20 c9 a0 bb
       0.03871891 0.036060512 0.01821503 -0.0049067885

bias f4 [32]
000000 a2 0a cc 3d 6a ad 88 3d ae b2 95 3d 00 9e 07 ba
       0.099629655 0.06673701 0.07309471 -0.0005173385
000010 94 6e f9 3d a8 e8 c6 bc bc b4 24 3d 68 ae c4 bc
       0.12179294 -0.024280861 0.040211424 -0.024008945
000020 f0 be b0 3d 34 27 a1 bd 1c 0a 3e 3d a8 b7 e9 3c
       0.086301684 -0.078688055 0.04639636 0.028529957
000030 3e db 9e 3d e0 ca 97 3d 00 2c 65 bc f8 a6 62 3d
       0.07756661 0.07411742 -0.013987541 0.055335015
000040 40 0c e5 3b 6a 78 c4 bd 28 72 ef bd 48 66 d1 bd
       0.0069899857 -0.0959328 -0.116916955 -0.10224587
000050 28 cd f9 bd 80 a3 07 bb ec 17 8f bd 30 4b 3e bd
       -0.121973336 -0.0020696819 -0.069869846 -0.046458423
000060 00 9d c7 3c 28 51 8c bc 44 89 4b 3d a8 78 69 bd
       0.024366856 -0.017128542 0.049691454 -0.056999832
000070 c0 10 a2 3b 6c b6 f5 3d 24 a0 cb bd 18 77 e4 3c
       0.0049458444 0.11997685 -0.09942654 0.02788882

weight f4 [1, 32]
000000 d5 e3 22 bd 89 1b 06 3e 41 8b c8 bd ca aa 24 bc
       -0.03976806 0.13096441 -0.097921856 -0.010050485
000010 46 63 02 3e 65 64 ea 3d f2 1b 54 3d f9 58 ec bd
       0.12733182 0.1144493 0.051784463 -0.11540408
000020 13 f5 0d 3e 59 0f d0 3d 6d b7 0b 3d 2c 1e 1d be
       0.1386302 0.10159177 0.034110475 -0.15343541
000030 85 af 06 bd 1d ad 12 be 18 7e 98 bd a5 8a 27 be
       -0.032882232 -0.1432385 -0.074459255 -0.16361482
000040 35 7b 10 be 53 ed 67 3d 21 e1 ed bd 2e c2 26 be
       -0.141095 0.056622814 -0.116152056 -0.16285011
000050 d9 47 9a bd 8f 0c 13 3e 01 b9 7f 3c a4 ab 2a 3e
       -0.07533235 0.1436026 0.015608073 0.16667038
000060 4e e4 d5 bd 98 05 5a 3d 74 fe 73 bc 23 c3 ff 3d
       -0.10443936 0.05322799 -0.014892209 0.12488391
000070 b2 6e 0e 3e 1c 9d 20 3e c7 0d d9 3c 72 d2 c7 3d
       0.13909414 0.15684932 0.026495827 0.09756936
